code/0model.pkl (torch_old, 13055 bytes, 10 tensors)

net.0.weight f4 [20, 95]
00000000: 3d9f b23d 92cc 6c3d c016 a2bd b62c 7abd
00000010: 2e17 73bd 7666 863a 5054 0a3d 632e 27bd
00000020: faab 36bd 21d5 683d 38e1 fabc 3faf 4fbd
00000030: 70a6 4d3d 7643 013d 0873 46bd 8033 123d
00000040: 3243 7bbc f982 213d ecc6 bcbd e9dd 9cbd
00000050: 7ed6 d03c 6b7e d7bd a3bd e6bd e434 833d
00000060: eef3 c93c 1e7d bd3d 8fc8 6bbd 0be8 253d
00000070: dfbd 1cbc 5f0c 5abd 9c74 8bbb 5a66 233d
00000080: 1aab 99bc 6fc7 c6bd 970a d8bd b20c 3f3d
00000090: ac5e c23b ad18 d43c d7d3 903c 9387 2c3d
000000a0: c64f 0f3d 3df4 a73d 7384 38bd 71b1 0f3c
000000b0: b45f 75bd 295c 8f3d 36ce 04bc 2878 d6bc
000000c0: 6a62 9f3c 41fa 7ebd c62e 88bc 49ed ef3b
000000d0: 8d39 973d 5c02 273d a9e3 5abd 1bb6 323b
000000e0: 52d6 7abd e0b3 c6bc ceb9 c2bd 6338 e9bd
000000f0: e0ec c33d 4c40 573d 5041 afbd 13aa bbbd
00000100: 1db3 653c b5fc 3e3d b1c3 86bd 2a0b dbbd
00000110: 894d 863d c9e4 fa3c ca37 ea3c 48a4 60bd
00000120: e6db babb e7a2 8f3d 5a17 c1bd 1780 9b3c
00000130: d44c 683d 1d9d be3d f0f5 7dbc 0d66 133d
00000140: 3c00 eabd ea5e ca3c 4849 a9bd 19e2 94bd
00000150: a227 743d 3b0a f13c 6599 36bd f744 783d
00000160: a52d 2a3c ee6f 213d d61f cfbd d3ac 9e39
00000170: 8140 5fbd 6cb8 fdbd d6f3 4bbd 49b4 1c3c
00000180: 890f dabd f74f b9bd 301d 373d 4ae2 fabc
00000190: 959f 6abd 5fff 8c3d f22a 5a3d 5a72 bbbd
000001a0: 6941 ed3d 61a4 36bd 2e5b 1bbc 24e5 48bd
000001b0: 0f3a b43d 86b9 403d 963a 5cbb cefa ac3d
000001c0: 1bc9 823d 3e8f 663d 0dc0 7cbd 1dd4 293c
000001d0: 96aa 8c3d 9635 223c 5688 95bd 03f1 8f3d
000001e0: b348 a23d b92f af3d 7676 d73d 84a3 b3bc
000001f0: a05a ec3c 3ab2 2ebd 23b4 04bd 9de6 173d
00000200: c4bd 88bb 1c1a 943d 7517 01bb ec13 163c
00000210: 2066 9dbd be7c 013e bfcf 6a3c 39d3 a9bd
00000220: fb0c 8f3b 2411 a5bd c92b 473d 99bb 21bb
00000230: 2c15 ef3c 3a16 01bd 0d0c 403d 9604 b53c
00000240: 594e 80bd 3915 bfbc 7180 1b3c 3f41 ef3c
00000250: 2896 52bd 08ea 513d ae3d c13c cb9e 07bc
00000260: 6518 673c ffcd 63bd 974c 37bd ac71 75bd
00000270: 69ec f33c 5ddb 3cbd e2f0 623d 2225 a83d
00000280: 2115 cb3c 990d a33d 4028 833c bc41 963d
00000290: 29fe 8fbd 237c 93bc ac7e df3c 2764 683c
000002a0: 3e51 38bc b5a8 b03c 25ee 9ebd 0cef c83d
000002b0: fb3a 963d a5d1 87bd f1e8 b0bd 9813 6cbd
000002c0: 491d 7a3d f6de 7d3d b88e 27bd 2484 cb3c
000002d0: 6fb2 a6bc f715 7d3d 1dd9 88bd e980 a6bc
000002e0: bc02 7e3d 5d47 a43d 1c1d 63bd b1fd 40bc
000002f0: ea05 293d f178 f43a 460f 853d 5a0f 87bb
00000300: ab12 ccbc b0cc b2bc 9dfd 46bd c3b7 3a3d
00000310: a20b 7fbd 5f46 393d 54d7 3d3d 5a63 733d
00000320: 545f c23b 8bd0 f2bc 9805 d43c e20e 63bd
00000330: 53d6 d53b 3795 8abd 55eb 8dbd 6eb0 0039
00000340: 7b25 bd3d 22d5 cdbc 8539 e33b 665a 65bc
00000350: 77a1 f1bc 7553 2239 df0c 89bd 3c7b 333d
00000360: 5bb5 1c3d e7ff 6abd 025c 8dbd 3aa7 b43d
00000370: e091 b0bd 43ef 9dbc 5a72 7a3c e9ea 4ebc
00000380: e613 a13d bafb 173c dafc 1f3d f639 5bbd
00000390: 43b5 293d 5055 4abd 5b86 7f3c 3846 c1bd
000003a0: a34f bfbd 7ea0 9e3d c57e 38bd 44cd 983d
000003b0: 1062 543d c757 8c3d b38d 4e3d 0a58 fabb
000003c0: 856a 773d d19b 09bd 8556 e6bd fe75 9b3d
000003d0: 7468 96bc 26d3 99bd b68b 893d 3b9b 853d
000003e0: 6adc 78bd 8e6e 363d dfa9 823d 31b0 7d3d
000003f0: 13b4 b73d 538c a2bd 5998 89bd b684 acbd
0.087217785 0.05781228 -0.079144955 -0.061077796 -0.059348278 0.0010253924 0.033771813 -0.040815722
-0.044597603 0.05684388 -0.03062497 -0.050704237 0.050207555 0.031558476 -0.048449546 0.035693645
-0.015335845 0.039431546 -0.09217629 -0.076595135 0.025492903 -0.10522159 -0.11266639 0.064065725
0.024652448 0.0925238 -0.057564314 0.040504497 -0.009566753 -0.053234454 -0.0042558443 0.039892532
-0.018758345 -0.09706008 -0.10548895 0.046642967 0.005931696 0.025890673 0.017679138 0.04212148
0.034988187 0.08200882 -0.04504819 0.008770333 -0.059905723 0.07 -0.008105805 -0.026180342
0.019456107 -0.06225038 -0.016623866 0.0073219878 0.07384024 0.040773734 -0.05343977 0.0027269188
-0.061239548 -0.024255693 -0.09508096 -0.11387708 0.09566665 0.052551553 -0.08557379 -0.091632985
0.014019755 0.04662772 -0.06580294 -0.10695489 0.065577574 0.030626671 0.028591055 -0.05484417
-0.0057024835 0.07013493 -0.09428282 0.018981976 0.056713894 0.09307311 -0.015500531 0.035985995
-0.11425826 0.024703462 -0.082659304 -0.07269687 0.05960811 0.029423824 -0.044579882 0.060612645
0.010386859 0.039413385 -0.10113494 0.00030264872 -0.054504875 -0.12388691 -0.049793087 0.009564468
-0.10647494 -0.09048455 0.04470557 -0.030625481 -0.057281096 0.06884646 0.053263612 -0.0915267
0.115847416 -0.044590358 -0.009482188 -0.04904665 0.08800136 0.04705193 -0.0033604256 0.08446275
0.06386014 0.05628895 -0.06170659 0.010365513 0.06868474 0.009900471 -0.07301395 0.07028391
0.079240225 0.08554024 0.105206415 -0.021928556 0.028851807 -0.04265044 -0.032398354 0.037085164
-0.0041730125 0.072315425 -0.001969782 0.009160023 -0.076854944 0.12645242 0.014331757 -0.08292241
0.004365561 -0.0805991 0.04862574 -0.0024678467 0.0291849 -0.031515338 0.046886493 0.022096913
-0.06264944 -0.02332555 0.009491072 0.029205916 -0.05141273 0.05124858 0.023588981 -0.008277605
0.014104937 -0.055616375 -0.044750776 -0.05992286 0.029775815 -0.04610764 0.055405505 0.082102075
0.024790348 0.07961578 0.016010404 0.073367566 -0.07030899 -0.018003529 0.027282082 0.014184034
-0.011249838 0.02156482 -0.07760266 0.098112196 0.073354684 -0.066317834 -0.0863818 -0.057635874
0.061063085 0.06198021 -0.04090759 0.024843283 -0.020348756 0.061788525 -0.06682036 -0.020325141
0.062014326 0.08021424 -0.055447683 -0.011779235 0.041265406 0.0018651766 0.06497054 -0.004121703
-0.024911245 -0.021826118 -0.04858171 0.045585405 -0.062266953 0.045233127 0.04634793 0.05942092
0.005931774 -0.029640457 0.025881574 -0.055434115 0.0065257936 -0.06766742 -0.06929652 0.00012272756
0.092356645 -0.025126044 0.006934347 -0.013998603 -0.029495938 0.00015480614 -0.06691908 0.043818697
0.03825889 -0.057372954 -0.06902315 0.088209584 -0.086215734 -0.019279128 0.015286053 -0.012629249
0.078651235 0.009276325 0.039059497 -0.053522073 0.04143263 -0.049397767 0.015595998 -0.09437221
-0.093413614 0.07745455 -0.04504277 0.07461026 0.051851332 0.0685268 0.050428104 -0.0076398896
0.06040432 -0.033595864 -0.11246971 0.075908646 -0.018360354 -0.075109765 0.06716101 0.065237485
-0.06075708 0.044539027 0.063800566 0.061935607 0.08969893 -0.07936921 -0.06718511 -0.0842375

net.0.bias f4 [20]
00000000: e152 dd3d 72af 79be a781 733d 91b9 b8bd
00000010: 8978 9f3d 2b65 dfbd b47f 313e 854a 193e
00000020: 2ebe 083d c107 703d a239 d03d c311 a73c
00000030: 26ad 0c3e 250b 88bd 1903 66be 0b2a 30bc
00000040: 9f41 1f3e c034 993d 0b71 e93c 885e 7ebd
0.108068235 -0.24383333 0.059449818 -0.09019769 0.07786662 -0.10907968 0.17333871 0.14969833
0.033384494 0.058601145 0.101672426 0.020394212 0.13737926 -0.06642751 -0.22462119 -0.010752211
0.15552376 0.074807644 0.028496286 -0.06210187

net.3.weight f4 [20, 20]
00000000: fcbc 4ebe e36f 043e 0fac 0abd 47b9 2b3e
00000010: 9a54 d7bc 8b4a a23d 272c 233e 6fcb febd
00000020: d100 203e b156 053d acab 093e 4034 f63c
00000030: 9471 94bd 3862 963d bc31 813d 011d 70be
00000040: f4fb 2dbe f500 363e 11a2 643e 9ea3 e53d
00000050: efbd 4f3d a239 953d 77c6 283d 4f21 283e
00000060: 38ec e53d db66 523e 9c86 77bd 646f 10be
00000070: 5e19 4f3e 8bef cd3c 58f1 3c3e e54c 213e
00000080: 489d 093e 39a7 0d3e 52a9 f0bb 0641 9fbc
00000090: 3155 fb3d e6af 613e 4ae1 063e 9d06 e1bc
000000a0: fe0e 9fbe 9931 a3bd 546e a13b e40f 27be
000000b0: 5cb8 efbc 4edb 673e 6e51 03be 9103 1bbe
000000c0: 57a9 82be 8d95 98be f999 65be 77ff 98be
000000d0: 632c a43d ba41 ffbd 9945 1c3e 2913 6d3e
000000e0: 7694 94bd 248e b63b b906 75be 2d1f 973d
000000f0: 7d17 c5be 2b29 9d3e fa69 ffbd d5dc a03d
00000100: 688b 57be e58a 4e3e 58d5 5fbe abcf a0be
00000110: 7583 acbd 817e 2bbe 53f0 a0be 1819 62be
00000120: dda5 5bbe efa4 18be 4df4 ae3e 86f3 2ebe
00000130: 01fc b5be 43b2 52bd fb70 a9be 7f6d 54be
00000140: fe22 f33d 73ab 76be e4be 553c 6f06 283e
00000150: f9af edbd f131 683c 7ce1 3fbe 6d27 dc3d
00000160: d1bc ddbc eb51 cbbd 8e11 92be 3886 733e
00000170: c934 6cbd 144b 4ebd 2d65 4f3e 7a4b d5bd
00000180: 71ee 19bd f226 48be 8372 723e 247f 17be
00000190: b54e 5bbe 5025 10be 2a35 333e a3a4 adbd
000001a0: 6997 1cbe 643c 2bbe bde6 b6be c92f 9bbd
000001b0: 566c 64be 498a 153e 3352 3b3e 3455 de3c
000001c0: a30c f53d ad65 503e 6969 8a3e 9063 703c
000001d0: 8138 d2bc 2c75 98be b3be 6abe 8acb 1abd
000001e0: a4fb 0a3e 157b 27be 32cf c33d 683a 883c
000001f0: ba40 1b3c 234a 33be 4462 e6bd 8f01 1d3d
00000200: 36a1 5fbe dd21 1d3e e4a0 9abd e18f c83d
00000210: b894 7cbd 4bc8 f4bc 0b7b 09be 5db0 37bd
00000220: c14f 023e 647f b53d 1c30 cebd f596 9bbd
00000230: 6338 93bd b058 2ebe 2f29 89bd 2075 3abe
00000240: 9518 e03d 11cb 17be 7c3c 393e 47bc 573e
00000250: c705 5fbe 6ec4 b1bc fc9e 163e 398a 80be
00000260: 319c 69be 2580 fc3d 862b 6b3e efc2 253d
00000270: ea4a b9bd 685c 3c3d 7c49 88be e687 17be
00000280: 0326 e5bd 85d9 163d 82f4 33be 59b6 1bbe
00000290: 68f2 38bc 3b10 a33d 709a 443e 4259 fcbc
000002a0: c6de 4abe 858e 153e 4f18 193e 9514 2c3e
000002b0: 3ebd 0abe 6099 ebbd 3fc8 debc 1c9d d8bc
000002c0: 4c8e 2e3e 4ebc ddbd 96e0 87bd c704 bdbd
000002d0: 41f1 43be b7c6 04be 36d1 083e a7b1 613e
000002e0: ae5c f83d f61d 543d 8db0 5cbd 042c 40be
000002f0: 6d0f 0ebd 8301 7eba 9129 51bc ebe6 c4bc
00000300: a461 ccbd ce73 94bc 98e8 8dbb be59 aabd
00000310: b272 4bbe f5a2 00be 84e3 5e3e 28e5 e7bd
00000320: b4c3 c7bd 49e3 56be e2c5 5dbd 5777 0d3e
00000330: dacd 65be 5004 433e 81fa 39be 936e 053e
00000340: 1fc4 21bd c406 1a3e c93b d53d 091d 5fbd
00000350: 9ad6 e63d cece 4ebc 9cde 7a3e bb32 273e
00000360: 568e 2fbe a360 e9bd 47ae 12be 08ca 1a3d
00000370: 4dd3 073d 4ac3 62bd ea97 b93d a0b5 e7bd
00000380: 23ef fb3c 16fe 84be d14b 653e 6857 7a3e
00000390: f94b 313e 4b9d 04be 293e 0d3e 5d6c fa3d
000003a0: aeb3 76bd 25c5 35be 56a3 f6bc 16f7 af3a
000003b0: 4a47 8dbd 274a 663c ecaf 603d 8c66 1cbe
000003c0: a836 c5be 626a 693e eb95 90be 84c8 06be
000003d0: 8324 6bbd 66b1 f1bb 2a20 efbd 0209 cdbe
000003e0: 87c6 63be 6a49 87bd 384c 8fbe f822 02be
000003f0: 21aa 0bbe 29a4 aabd bac3 533c 8975 cfbd
-0.2018928 0.12933306 -0.033855494 0.16769896 -0.026285458 0.07924374 0.15934812 -0.12441146
0.15625311 0.03255338 0.13444394 0.030054212 -0.07248226 0.073429525 0.06308314 -0.23448564
-0.16990644 0.17773803 0.22327448 0.11212848 0.050718244 0.07286383 0.041204896 0.16418956
0.11226696 0.20547049 -0.060431108 -0.14104992 0.2022452 0.025138637 0.1845144 0.15751989
0.13438904 0.13833322 -0.0073444033 -0.019440185 0.12272108 0.22039756 0.13171878 -0.027468974
-0.31066126 -0.079684444 0.004926482 -0.16314656 -0.029262714 0.22642252 -0.12824032 -0.15138079
-0.2551982 -0.29801598 -0.22422017 -0.29882404 0.080162786 -0.12463708 0.15260924 0.2315184
-0.07254879 0.0055711437 -0.23928346 0.07378993 -0.38494483 0.3069547 -0.12471385 0.0785462
-0.21049273 0.20170172 -0.21858728 -0.31408438 -0.08423511 -0.16747476 -0.31433353 -0.22079885
-0.2144999 -0.14906667 0.34170762 -0.17085084 -0.35543826 -0.051439535 -0.3309401 -0.20744894
0.118719086 -0.2408884 0.013046 0.16408704 -0.1160583 0.014172063 -0.18738359 0.10749707
-0.027067574 -0.09927734 -0.28529018 0.23781669 -0.057667527 -0.05036457 0.20253439 -0.10414787
-0.03758091 -0.19546106 0.23676495 -0.14794594 -0.21416743 -0.14076734 0.17500749 -0.084786676
-0.15292133 -0.16722256 -0.35722914 -0.07577474 -0.22306952 0.14603533 0.18293075 0.027140237
0.11965301 0.20351286 0.27033547 0.014672175 -0.025661709 -0.29776895 -0.22924308 -0.037791766
0.13572556 -0.16355546 0.09561004 0.016629413 0.009475881 -0.1750875 -0.112492114 0.038331565
-0.21838841 0.15344949 -0.07550219 0.09793068 -0.061665267 -0.029880663 -0.13425843 -0.044845928
0.12725736 0.088621885 -0.1006777 -0.07597152 -0.07188489 -0.17026019 -0.06697308 -0.18208742
0.10942189 -0.14823557 0.18089479 0.21067916 -0.21779548 -0.02170011 0.14709085 -0.25105456
-0.22813489 0.12329129 0.22965822 0.040469106 -0.09047492 0.045986563 -0.26618564 -0.14797935
-0.11188891 0.036828537 -0.17573741 -0.15206279 -0.011288263 0.0796208 0.19199538 -0.03080428
-0.19811544 0.14605148 0.14950679 0.16804726 -0.13548753 -0.11503863 -0.027195094 -0.026442103
0.1704647 -0.10826932 -0.06634633 -0.09229427 -0.19135 -0.12966429 0.13361058 0.22040425
0.12127052 0.051786385 -0.05387931 -0.1876679 -0.03468268 -0.00096895563 -0.012766258 -0.024035892
-0.09979561 -0.018121626 -0.004330706 -0.08317898 -0.19867972 -0.12562163 0.21766478 -0.11323005
-0.09754124 -0.2098514 -0.054143794 0.13815056 -0.22441807 0.19044614 -0.18161966 0.13030462
-0.039493676 0.15041643 0.10411794 -0.05447105 0.11271401 -0.012622548 0.24498981 0.16327946
-0.1714414 -0.11395385 -0.14324294 0.03779033 0.033160497 -0.055362023 0.090621784 -0.11313939
0.030753678 -0.25975102 0.22392203 0.24447405 0.17314138 -0.12950628 0.13793243 0.122277
-0.06022995 -0.17750986 -0.030107182 0.0013425078 -0.06898363 0.014055765 0.054855272 -0.15273494
-0.38518262 0.22794488 -0.28239378 -0.13162428 -0.057407867 -0.007375884 -0.11676057 -0.40045935
-0.22243701 -0.066057995 -0.27987838 -0.12708652 -0.13639118 -0.08332092 0.012925083 -0.1012984

net.3.bias f4 [20]
00000000: 60a0 2b3e 2b7c 263d 236c e0be 1ade bdbe
00000010: acbe 0b3e e1a6 17be 7916 ed3d 4c6d 5fbe
00000020: 348a 3cbe 92f0 9c3e b5f5 ecbd 7391 cbbc
00000030: c2c7 cbbe e790 373d 3aea 743d 28c2 553e
00000040: c8ca dbbd f3de e23d 3db1 813e 411d 8b3e
0.16760397 0.04064576 -0.43832502 -0.37083513 0.13646954 -0.14809753 0.11576552 -0.21819037
-0.18412095 0.3065229 -0.115703024 -0.024849629 -0.3980084 0.044815924 0.05979369 0.20874846
-0.10732037 0.110776804 0.25330535 0.27170756

net.6.weight f4 [15, 20]
00000000: e23b db3d cde0 ee3d c426 17be a5e0 a5be
00000010: 6262 803d 25a6 74be bedb 283d 0d59 a4be
00000020: 95f7 403d e574 5c3e 850e 92bd 1717 59be
00000030: e120 85be 85a1 cf3d 9c88 66bc 50bd b23d
00000040: e571 3b3e 6d8a 803e 78c2 693c 1cc8 c93d
00000050: 2326 103d ece9 4fbd f3eb 37be 4a47 9ebe
00000060: b844 603e 920d 3fbe 70a0 4a3d 39b8 f6bc
00000070: 2651 4abe c113 953d 4878 13be bd84 a23b
00000080: 582a a5be 2edb 2ebe 4000 303e 9b01 13be
00000090: bf91 db3d 6552 3dbe 986c 103e 5c65 e73d
000000a0: 585f 57bd a08e c73c eed6 e6bd ba6d 5fbe
000000b0: 950d 03be 82d6 edbd 21f0 4f3e 5892 9abd
000000c0: a2d7 c4bd af3c 2c3e 04b8 d9bc 34b3 943c
000000d0: fc1f 23be c99c 6fbe 7251 79bd e954 803e
000000e0: ab1d 84be 875e fb3d e95f cebd 69b6 203e
000000f0: cb24 023e 8018 8b3d c56a cfbe 02c1 12be
00000100: f34d 853e 853c c4be 48a6 293e 19c0 61be
00000110: 3aaf 80be 72b0 6bbd b776 a6bd 9abc 1dbe
00000120: c58f f0be d9ce 7cbd 689f 6ebc 9ffd a73d
00000130: 32b8 ce3d 569b c03d d4a8 833e 4083 efbd
00000140: d719 2f3e 5327 f0bd 1b18 1fbe df53 463d
00000150: 7399 e33c a7cb 96be 0d60 013d 080f 7d3d
00000160: 9e2e bb3c 7758 8b3d ca5e d4bd 4934 df3c
00000170: 14a1 30be 7fda e13d 7e74 fd3d 89be 83bc
00000180: df01 793e 5bd0 84be ab29 6abe 9171 8f3d
00000190: e41d 3f3d b443 513e a682 c9be 6e13 a6be
000001a0: ee73 ce3d 7d40 9b3d d50c f8bd d0e4 1fbc
000001b0: 3760 693c 6469 413e c4e4 d7bb 0e68 133e
000001c0: bddb d7be 8054 283e 487f f43d e532 693c
000001d0: 45b6 cabd 6d07 203e c5d9 063e da4b 94bc
000001e0: 3e22 ed3d 6142 c1bd 61d5 a63d 6654 55bd
000001f0: e9c8 8e3d daf4 683d 2979 ba3d 08d0 f2bd
00000200: 2f0b ca3d 2c27 243d 0196 c03d d4da 2f3e
00000210: ed5d 05be 9c1d 633e bd89 263e aa05 eabd
00000220: 8366 afbd 64b3 363c a8b7 2ebd ce7a 33bd
00000230: 6d0b bebd 6c89 f4bd 1a1d 003f a1ab 043f
00000240: 0258 07bf 5ff9 213f dc41 f4be 3681 b03e
00000250: 7ac8 553e 6ece b5be 5ee8 ae3e 5f30 7fbe
00000260: faa4 293f c9ae eabe c394 e3be deb9 aabe
00000270: bc0d c8be 9bf4 71be de53 a6be 83e4 e0be
00000280: e8b6 30bd 40d4 653a 1734 45bd 13ec 27be
00000290: e00a 1e3e 5275 51be b731 d2bd 37db 0dbe
000002a0: 3538 fabc e33f 1a3d b1ee ba3d 3543 e6bd
000002b0: 8315 1cbd ab9a 193e ca47 6f3d 540c 4c3e
000002c0: 1691 cb3d 9c76 813e a60d f33d f43d e6bc
000002d0: af6b c5be bdf4 ccbe c536 ab3e 0029 fa3e
000002e0: dcd8 9cbe 7967 093f 1d43 85be dcba f73e
000002f0: 47db 603e f4ae f1be 48d5 213e 7f4c ebbe
00000300: b1f4 a43e 00f5 c9be 0717 94be 357e 47be
00000310: a118 ccbd 6456 cfbe f846 0fbf 6d7f ebbe
00000320: 1d7d f83d ca23 4cbd a0e0 b5be 6c20 08be
00000330: 9825 823d 177f 5ebe 67a5 5c3e 0da0 1dbd
00000340: e4f3 3cbc 7653 d3bd 2f4f 8cbe 2dcc 333e
00000350: 6f2f a8be 7143 d43c 4c25 253e d940 c73d
00000360: 6d1e eebd 8727 5b3e ca34 953e 1905 e83d
00000370: b988 2fbe b6a2 51be 97ce fc3e d175 163f
00000380: ce23 b4be e550 093f 31e6 9fbe 0d4f 263e
00000390: cd84 f83e 84b3 88be ec53 e93b c554 efbe
000003a0: 45ff a73e bcfc cfbd 78a4 49be 0cbd 4bbe
000003b0: 9eba c0bd 7dac b7be 56e3 f5be 751b b5be
000003c0: 1d56 15be cbed 533e 4907 24bd a8b2 3f3d
000003d0: c09d 6a3d a70a a83d ecf4 273e 059e 62be
000003e0: 8cfe 20bd 4fe0 7cbd a0d4 34bc bd1c 1a3e
000003f0: 0229 8fbe f1d0 2a3e b100 b5bd 0a20 2cbe
0.10704781 0.11663971 -0.14760882 -0.32397953 0.06268765 -0.23891504 0.041225187 -0.3209919
0.047111113 0.21528967 -0.07131676 -0.21200214 -0.26001647 0.10138229 -0.014070656 0.08727515
0.18305166 0.2510561 0.014267556 0.09852621 0.03519262 -0.050760195 -0.17961101 -0.30913764
0.21901214 -0.1865752 0.04946941 -0.030117141 -0.19757518 0.072791584 -0.14401352 0.0049596713
-0.32258868 -0.17075798 0.17187595 -0.14356081 0.10721158 -0.18488462 0.14103925 0.1129863
-0.05258116 0.024360001 -0.11271463 -0.21819201 -0.1279815 -0.1161318 0.20306446 -0.07547444
-0.09611441 0.16820024 -0.026577003 0.018151857 -0.1593017 -0.23399653 -0.060868688 0.2506478
-0.25803885 0.12273889 -0.10076887 0.15694584 0.12709348 0.067917824 -0.40511146 -0.14331439
0.26036033 -0.38327423 0.16567338 -0.22045936 -0.25133687 -0.05754132 -0.08128112 -0.15403977
-0.46984687 -0.061720703 -0.014564373 0.08202671 0.10093726 0.09404628 0.25714743 -0.11694956
0.17099701 -0.117262505 -0.1553654 0.04841983 0.027783131 -0.2945225 0.03158574 0.061781913
0.022849377 0.06803983 -0.10369642 0.027246611 -0.17248946 0.11028003 0.12375735 -0.016082065
0.2431712 -0.25940213 -0.22867458 0.07004083 0.046659365 0.20435983 -0.3935749 -0.324367
0.100807056 0.075806595 -0.121118225 -0.009759143 0.014244131 0.1888786 -0.0065885503 0.14395162
-0.42159835 0.16438484 0.119383395 0.014233326 -0.098980464 0.15627833 0.1316901 -0.018102575
0.11578797 -0.09436489 0.081461675 -0.05208244 0.06971914 0.056874134 0.09105141 -0.11856085
0.09865414 0.04007642 0.09403611 0.1717332 -0.13024111 0.22179264 0.1626348 -0.114268616
-0.085644744 0.0111511685 -0.042655617 -0.043818288 -0.09279523 -0.11940274 0.50044405 0.51824385
-0.52868664 0.63271135 -0.47706497 0.3447358 0.20877257 -0.35509056 0.34161657 -0.24920796
0.6626736 -0.45836475 -0.44449434 -0.3334493 -0.39072978 -0.23628466 -0.3248586 -0.4392434
-0.043143183 0.00087672845 -0.04814538 -0.16398649 0.15433836 -0.2045491 -0.102633886 -0.13853155
-0.03054438 0.037658583 0.09127558 -0.112432875 -0.038106453 0.15000407 0.058418073 0.19926578
0.09939782 0.25285804 0.118678376 -0.028105713 -0.3855872 -0.4003047 0.33440223 0.48859406
-0.306342 0.5367351 -0.26027766 0.4838475 0.21958648 -0.4720379 0.15804017 -0.459568
0.32217935 -0.39444733 -0.28923818 -0.19481738 -0.09965635 -0.40495598 -0.55967665 -0.45995656
0.121332385 -0.04983882 -0.35522938 -0.13293618 0.06354827 -0.21728168 0.21547471 -0.038482714
-0.011532757 -0.10318653 -0.27404162 0.17558356 -0.3284869 0.025911065 0.16127509 0.097291656
-0.11626897 0.21401797 0.29141837 0.11329097 -0.17142 -0.20472226 0.49376366 0.58773524
-0.35183567 0.5363906 -0.3123031 0.16241093 0.4853882 -0.2669946 0.0071206 -0.46744362
0.32811943 -0.10155627 -0.19691646 -0.19896334 -0.094105944 -0.35873786 -0.48025006 -0.3537251
-0.14583631 0.2069618 -0.04004601 0.04680124 0.05727935 0.08205157 0.16402024 -0.22130592
-0.039305255 -0.061737355 -0.011037022 0.15050025 -0.27960974 0.16681267 -0.088380225 -0.16809097

net.6.bias f4 [15]
00000000: 8a4b 0f3e bdcd de3e b8c6 b23e 8601 5c3e
00000010: 65b0 893e c2c8 813e 9e55 b13e 4b28 45bf
00000020: 3715 c03e 6a7e 41bf 121e d63e b542 4cbf
00000030: 16bc da3e ccca b63e 0d1a a2be
0.1399366 0.4351634 0.34917235 0.21484956 0.2689239 0.2534848 0.34635633 -0.7701461
0.37516186 -0.7558352 0.41819817 -0.79789287 0.42721623 0.35701597 -0.316605

net.9.weight f4 [10, 15]
00000000: 73a4 b2bd 868b c43d 5608 683e 5b50 a73d
00000010: 068b 5a3e 584c 863e e3d9 783e 67ac 11bf
00000020: e80a b13e 8bf0 d8be f092 173e e28f 32bf
00000030: bcac 873e c7dd 663e 2500 4abe 9136 be3d
00000040: 58b7 66bd 1bda 2cbe 4cef 8a3e 7b8f c7bc
00000050: 29a4 2ebe 1f05 96bd ec92 b0be b8a2 a8be
00000060: c6f0 b9be 7c09 08be aaef b7be 166e 483d
00000070: c17f 4abd c8bf 5bbe 2612 c7bd e6a2 fa3b
00000080: 0c70 973d eac4 02be 44a8 adbe 0a81 14be
00000090: 2957 a7be dc59 543f cc59 54be 53ee 043f
000000a0: 2de9 4ebd f1b3 f53e 3e09 a7be 2642 753d
000000b0: a874 ad3e 5d5b 3c3c 56bb 03bb 2b83 a2bc
000000c0: e97d e83d aa20 89bd 268f febc 08b2 76be
000000d0: a2b7 ec3e d8f2 06bd 26f8 7c3d d2e5 22be
000000e0: 58ee 313e c05c c3bd b02c 4f3e a52a d53e
000000f0: 65cd 333e 919c 6a3e 34cb de3d 16b3 1a3e
00000100: 367e dc3d 9606 d83d 1f09 0e3e f5b8 30bf
00000110: 9638 313e 0bf1 14bf 18c6 853d 1c87 d1be
00000120: 7dfa ae3e 6f55 6e3e 816e b9be 99ac 983e
00000130: 8a03 fe3d 4cae 6c3d f7b0 2c3e 7741 c63e
00000140: 43f7 453e 2c8b 793e 5a52 b0be 6270 c03d
00000150: a6e7 aabe d725 e53b 1498 eabe 2f24 e83d
00000160: 7bc4 1cbd cf45 a9be 58c8 8c3c 173d 8f3d
00000170: ffe7 5ebe 510e 7dbe 67b0 ebbe d218 12bd
00000180: b0a4 a3be d288 1e3f 8ab5 b6be 8fca 2a3f
00000190: 82f6 cebe 73b7 893e 475b 9bbe 0956 983d
000001a0: 5393 b13e 91fe 63bd 420b 15be b215 37be
000001b0: a104 c8be 69f5 973d 258f d63d fe38 a83b
000001c0: 5fa7 e0bb ccdb d7bd 72b3 233e 46ef 6dbe
000001d0: a714 af3e 341e d3bc b3e2 c53d 5730 f93d
000001e0: b1e5 553e 870e db3d 5f32 883e 90e5 fabd
000001f0: 19a6 ce3e bd8d ae3e 4e99 933d 233c 9abe
00000200: fc73 d43e 63ea d7be 7f62 243e 767f f7be
00000210: db76 bb3c 0839 f83d b89e 1dbe bb45 423c
00000220: abbb 193e 5f7a a13e 3372 2f3e 7199 2a3e
00000230: 0ee6 e53d 23f8 133e 86d6 1bbf 78ab 6c3e
00000240: 108f 11bf 46e3 903e cb37 a0be c679 cd3d
00000250: d422 633e 31b1 8ebe
-0.087227724 0.095969245 0.2265943 0.081696235 0.21342096 0.2623012 0.24301867 -0.5690369
0.34578633 -0.4237102 0.14802146 -0.697508 0.26498973 0.22545539 -0.19726618 0.092877515
-0.056327194 -0.16880076 0.27135694 -0.024360409 -0.1705481 -0.073251955 -0.34487092 -0.32936645
-0.36316508 -0.13284868 -0.35925037 0.04893311 -0.049438242 -0.21459877 -0.097202584 0.0076488135
0.07394418 -0.12770429 -0.3391744 -0.1450235 -0.32683685 0.82949615 -0.2073738 0.51926154
-0.050515343 0.47988847 -0.3262424 0.059877537 0.33878064 0.011496392 -0.0020100675 -0.019837936
0.113521405 -0.06695683 -0.031074118 -0.24091351 0.4623385 -0.032946438 0.06176009 -0.15907982
0.17376077 -0.09539175 0.2023189 0.41634098 0.1755882 0.22911288 0.10878602 0.15107378
0.1076626 0.10548131 0.13870667 -0.6903222 0.17306742 -0.581803 0.06531924 -0.40923393
0.34175482 0.23274778 -0.3621712 0.29819182 0.12403019 0.05778341 0.16864382 0.3872182
0.19332604 0.24369496 -0.3443783 0.09396435 -0.3337986 0.0069930363 -0.4581915 0.113350265
-0.038273316 -0.33061072 0.017185375 0.06994074 -0.21768187 -0.24712493 -0.46033022 -0.0356682
-0.31961584 0.6192752 -0.35685378 0.6671533 -0.40422446 0.26897773 -0.30343077 0.07438285
0.34682712 -0.055662695 -0.14555076 -0.1787937 -0.39066032 0.07419855 0.104765214 0.005133747
-0.0068558897 -0.1053997 0.15986422 -0.23235807 0.34195444 -0.025771238 0.0966238 0.12167423
0.20888402 0.1069613 0.2660093 -0.12250817 0.40361097 0.34092513 0.07206975 -0.30124006
0.4149474 -0.4217101 0.16053198 -0.48339432 0.022883823 0.12120253 -0.15392578 0.011857445
0.15012996 0.31538674 0.17133407 0.16660096 0.1122552 0.14450125 -0.6087421 0.23112285
-0.5685892 0.28298396 -0.31292567 0.10032992 0.22181255 -0.2786956

net.9.bias f4 [10]
00000000: 6eb7 283f 53f1 ed3e fc7b 85bf e95a 94be
00000010: 804f 243f a9bc 0c3f ef89 42bf ce76 f4bd
00000020: cf8f 1a3f c37c 493f
0.6590489 0.46473178 -1.0428462 -0.2897561 0.6418381 0.5497537 -0.7599172 -0.11936723
0.60375684 0.78705996

net.11.weight f4 [5, 10]
00000000: dae8 c43d a045 1bbd 81f9 51be 27a6 ccbd
00000010: 56cb e13c 9c5b 66bd 39c4 f63d 545a f5be
00000020: ec43 a5bb 47fd 1fbe 40dd a6be 8783 27be
00000030: b6bb e53c ec80 9fbd f024 8d3d 4fff 2fbe
00000040: 721b ae3d 7eb6 b0be 8e7a 523e 373c cdbd
00000050: a8ab 05be ad34 56bf 265c cc3e 1e2f f63c
00000060: 0766 1fbe d3b8 37ba d2c6 b63e 206b bbbc
00000070: 41b1 b1be b951 89be e1f5 8abe e736 4cbf
00000080: f04d 413f de5e a93e 96d0 e8be 08be 92be
00000090: 343f a93e 26e5 c43d d7ab 88be 27d8 d3be
000000a0: 9bf8 cebe e40b 2cbf 2612 dd3d 1b1e 21bd
000000b0: a11b 15bf 6c0a e1be 2ac6 073f d7d5 fc3c
000000c0: ba47 81be 93d6 b1be
0.096147254 -0.037908196 -0.20505334 -0.099926285 0.027562778 -0.05623971 0.12049145 -0.47920477
-0.0050434973 -0.15623961 -0.32590675 -0.16358767 0.02804361 -0.07788262 0.06891811 -0.17187236
0.085013285 -0.3451423 0.20554563 -0.10021251 -0.13053763 -0.83674127 0.39914054 0.030051764
-0.15566264 -0.0007008437 0.35698563 -0.02287823 -0.34705546 -0.26820162 -0.27140716 -0.79771274
0.7550955 0.3308019 -0.45471638 -0.28660607 0.33056033 0.09614019 -0.26693603 -0.4137585
-0.40424046 -0.67205644 0.10794477 -0.03933535 -0.58245283 -0.43953264 0.5303675 0.030863686
-0.25250036 -0.3473402

net.11.bias f4 [5]
00000000: 12be 233e 5cb6 febe 9095 f4be 9160 c3be
00000010: c3ca 79bf
0.15990475 -0.49748504 -0.47770357 -0.38159612 -0.97575015
