code/1model.pkl (torch_old, 13055 bytes, 10 tensors)

net.0.weight f4 [20, 95]
0.086990505 0.05767187 -0.079401314 -0.061221845 -0.059511673 0.0008654257 0.033601295 -0.041261546
-0.04486886 0.056542113 -0.030909494 -0.051039502 0.050122764 0.031465594 -0.048530325 0.035481367
-0.01564541 0.039129898 -0.092432015 -0.07688266 0.0252029 -0.10551488 -0.11302082 0.06387786
0.02446467 0.09225441 -0.05786908 0.040175945 -0.009568397 -0.053492382 -0.0045390124 0.039633177
-0.019002767 -0.09729581 -0.10566437 0.04642893 0.0057497444 0.025794646 0.017602269 0.04195087
0.034880657 0.08187 -0.045289166 0.008542999 -0.060258128 0.06978776 -0.008355175 -0.02659763
0.019260088 -0.06254243 -0.017000092 0.006944776 0.073553376 0.040532418 -0.05345763 0.0026726997
-0.061314814 -0.024298707 -0.09509052 -0.11385027 0.09557906 0.052463293 -0.0855959 -0.09169397
0.013968907 0.04655174 -0.06584245 -0.10712102 0.06551815 0.030573249 0.028733483 -0.05483736
-0.005773958 0.07007466 -0.0944171 0.01890423 0.056657434 0.092988975 -0.015531454 0.03591076
-0.1143444 0.024627227 -0.082717985 -0.072648756 0.059551228 0.029357715 -0.044647615 0.06063494
0.01033355 0.039324168 -0.101202555 0.00019960557 -0.054595068 -0.12397294 -0.049835965 0.00965548
-0.10639966 -0.09045628 0.04474362 -0.030577518 -0.057243414 0.06888751 0.053286083 -0.091489285
0.115873896 -0.044575267 -0.009457631 -0.04903288 0.088018045 0.047066428 -0.0033360717 0.084485404
0.063869506 0.0563008 -0.061686333 0.010392915 0.06870677 0.009913644 -0.0730009 0.07030416
0.079250254 0.085551105 0.105215974 -0.021916084 0.028871937 -0.042632096 -0.0323795 0.03711172
-0.0041420683 0.072363496 -0.0019249453 0.009201701 -0.07681938 0.12648438 0.014350514 -0.08289613
0.004395809 -0.08057175 0.048662946 -0.0024342653 0.02921577 -0.031489763 0.046910238 0.02213884
-0.06259833 -0.023275394 0.0095790345 0.029241055 -0.051372528 0.05129869 0.023646273 -0.008206252
0.014190481 -0.05551202 -0.044597857 -0.059779007 0.029876616 -0.045974337 0.055488378 0.082154736
0.024870176 0.0797263 0.016143298 0.07342488 -0.07021706 -0.017888965 0.027493995 0.014420597
-0.011133059 0.02175742 -0.07747102 0.098230675 0.07346751 -0.066172004 -0.08626126 -0.057492763
0.061161168 0.062027078 -0.040790692 0.024978956 -0.020142566 0.062011708 -0.06657453 -0.020137416
0.062167346 0.08032006 -0.05535385 -0.011592926 0.04147347 0.002004496 0.06561907 -0.00373463
-0.024447948 -0.020949464 -0.04750256 0.04628723 -0.06159727 0.04652991 0.04703711 0.06033589
0.0067402357 -0.028654896 0.026807236 -0.054311585 0.007504904 -0.06639476 -0.06825056 0.0010514837
0.09324314 -0.024293913 0.0075917267 -0.013218416 -0.028775543 0.0012228391 -0.06599211 0.044764146
0.03928843 -0.05597258 -0.067727 0.08918611 -0.08526433 -0.01818838 0.015949951 -0.011968876
0.079209745 0.009784343 0.03958537 -0.053091377 0.041797794 -0.048652582 0.0161334 -0.09386088
-0.09264989 0.07825509 -0.04397866 0.07536497 0.052526988 0.06954489 0.050995328 -0.0068985084
0.061303012 -0.032666657 -0.11165967 0.0767329 -0.018251602 -0.07511599 0.06725506 0.06528026
-0.06087994 0.044275198 0.06393514 0.06197175 0.08959687 -0.0792917 -0.06740718 -0.08415784
00000000: 1428 b23d 5739 6c3d 289d a2bd c2c3 7abd
00000010: 83c2 73bd bcdd 623a 83a1 093d de01 29bd
00000020: 69c8 37bd b498 673d e835 fdbc cc0e 51bd
00000030: 874d 4d3d 11e2 003d bcc7 46bd e954 113d
00000040: ce2a 80bc ac46 203d ff4c bdbd a874 9dbd
00000050: 5076 ce3c 2f18 d8bd 7677 e7bd 65d2 823d
00000060: 226a c83c e1ef bc3d 2108 6dbd 888f 243d
00000070: c4c4 1cbc d41a 5bbd ffbb 94bb 6656 223d
00000080: b1ab 9bbc 0743 c7bd 9066 d8bd 432c 3e3d
00000090: 5a68 bc3b 4b4f d33c a232 903c add4 2b3d
000000a0: 05df 0e3d 75ab a73d 2281 39bd eff7 0b3c
000000b0: 3ad1 76bd e3ec 8e3d 25e4 08bc 46e3 d9bc
000000c0: 55c7 9d3c 3f16 80bd c743 8bbc 0191 e33b
000000d0: 27a3 963d 5205 263d 63f6 5abd 7628 2f3b
000000e0: 3e25 7bbd 150e c7bc d2be c2bd 552a e9bd
000000f0: f4be c33d c0e3 563d e74c afbd 0cca bbbd
00000100: d8dd 643c 0aad 3e3d 68d8 86bd 4462 dbbd
00000110: 612e 863d c074 fa3c 7b62 eb3c 249d 60bd
00000120: 7833 bdbb 4e83 8f3d c15d c1bd 0bdd 9a3c
00000130: a011 683d 0171 be3d a477 7ebc 2917 133d
00000140: 662d eabd 0abf c93c 0c68 a9bd dfc8 94bd
00000150: fdeb 733d 977f f03c 6be0 36bd 585c 783d
00000160: 0d4e 293c 6112 213d 4943 cfbd 364d 5139
00000170: 149f 5fbd 86e5 fdbd cc20 4cbd 0532 1e3c
00000180: 11e8 d9bd 2441 b9bd 1645 373d b47d fabc
00000190: 1278 6abd e514 8d3d 8242 5a3d bc5e bbbd
000001a0: 4b4f ed3d 8e94 36bd 2ef4 1abc b4d6 48bd
000001b0: ce42 b43d bac8 403d ffa1 5abb af06 ad3d
000001c0: 04ce 823d ab9b 663d cfaa 7cbd 0c47 2a3c
000001d0: 23b6 8c3d d66c 223c 7f81 95bd a1fb 8f3d
000001e0: f54d a23d 6b35 af3d 797b d73d 5c89 b3bc
000001f0: d784 ec3c fe9e 2ebd 5ea0 04bd 7502 183d
00000200: 30ba 87bb 5033 943d 724e fcba bbc2 163c
00000210: 7b53 9dbd 1f85 013e 6b1e 6b3c 72c5 a9bd
00000220: b80a 903b cd02 a5bd cc52 473d 3288 1fbb
00000230: e955 ef3c 69fb 00bd f324 403d 835c b53c
00000240: 8e33 80bd 0aac bebc 62f1 1c3c f08a ef3c
00000250: 006c 52bd 931e 523d d4b5 c13c 8473 06bc
00000260: 317f 683c 9260 63bd 3eac 36bd d5da 74bd
00000270: cebf f43c 964f 3cbd c847 633d be40 a83d
00000280: 8abc cb3c 8b47 a33d f33e 843c c95f 963d
00000290: f6cd 8fbd e18b 92bc 163b e13c 5e44 6c3c
000002a0: 6f67 36bc 9e3c b23c 20a9 9ebd 2a2d c93d
000002b0: 2276 963d 3085 87bd bea9 b0bd 887d 6bbd
000002c0: 2284 7a3d 1b10 7e3d 2414 27bd aba0 cc3c
000002d0: 0602 a5bc fdff 7d3d 3a58 88bd 39f7 a4bc
000002e0: 30a3 7e3d d87e a43d b8ba 62bd 42f0 3dbc
000002f0: 16e0 293d dd5d 033b 4a63 863d b2c0 74bb
00000300: 1047 c8bc 369e abbc 0b92 42bd ae97 3d3d
00000310: 6b4d 7cbd 2696 3e3d fca9 403d c422 773d
00000320: 32dd dc3b acbd eabc d99a db3c d375 5ebd
00000330: b3eb f53b faf9 87bd f3c6 8bbd f0d1 893a
00000340: 42f6 be3d 0704 c7bc 05c4 f83b 0e92 58bc
00000350: b0ba ebbc ac47 a03a df26 87bd 9c5a 373d
00000360: e8ec 203d 8143 65bd 74b4 8abd 35a7 b63d
00000370: 119f aebd ccff 94bc 79a9 823c 1b19 44bc
00000380: b838 a23d 824e 203c 4524 223d 5876 59bd
00000390: 2a34 2b3d ee47 47bd 312a 843c 223a c0bd
000003a0: 3abf bdbd 3444 a03d f822 34bd f358 9a3d
000003b0: 8a26 573d 8d6d 8e3d 7ae0 503d e20c e2bb
000003c0: de18 7b3d 79cd 05bd d3ad e4bd 2426 9d3d
000003d0: 6284 95bc 6ad6 99bd 05bd 893d a8b1 853d
000003e0: 3e5d 79bd e959 353d 6df0 823d 17d6 7d3d
000003f0: 907e b73d b063 a2bd c70c 8abd f25a acbd

net.0.bias f4 [20]
0.10755287 -0.24399878 0.061071586 -0.09008225 0.07875428 -0.10837907 0.17062764 0.14980048
0.034672465 0.059345532 0.10174173 0.02190996 0.13826175 -0.066473275 -0.22106157 -0.010242409
0.15683247 0.07493534 0.03026883 -0.062281616
00000000: ae44 dc3d d1da 79be 3326 7a3d 0b7d b8bd
00000010: ed49 a13d d9f5 ddbd 03b9 2e3e 4c65 193e
00000020: b704 0e3d 4d14 733d f85d d03d 847c b33c
00000030: 7d94 0d3e 2423 88bd f75d 62be c7cf 27bc
00000040: b198 203e b377 993d 56f6 f73c 021b 7fbd

net.3.weight f4 [20, 20]
-0.20032889 0.12867907 -0.03233853 0.16749705 -0.024575133 0.07870354 0.16036282 -0.12267884
0.15772134 0.034087427 0.13592793 0.030970465 -0.07061964 0.07336713 0.061635364 -0.23470834
-0.16836588 0.17929778 0.22450373 0.11196991 0.052334774 0.07238089 0.042756673 0.16400832
0.11394365 0.20466007 -0.059116565 -0.1392588 0.20362577 0.02664698 0.18598509 0.15846017
0.1363441 0.13828114 -0.009146277 -0.019310256 0.12432617 0.22204316 0.13291669 -0.027672518
-0.31247008 -0.07936884 0.0030582717 -0.16395426 -0.031329144 0.2238225 -0.12529023 -0.1526737
-0.25686097 -0.29988888 -0.22591333 -0.30027163 0.07798929 -0.124893345 0.15396181 0.24182184
-0.07431307 0.0036216644 -0.24167812 0.07069562 -0.3866578 0.3072469 -0.12644768 0.07776528
-0.21251372 0.19917631 -0.21539357 -0.31535468 -0.08586776 -0.16919062 -0.3159104 -0.22214197
-0.21663044 -0.1492928 0.34273592 -0.1605908 -0.3571094 -0.05330894 -0.33309227 -0.21046694
0.12038159 -0.24211656 0.014695823 0.16396566 -0.11423532 0.013478239 -0.18637893 0.10934373
-0.025709113 -0.09768421 -0.28378507 0.23875003 -0.055628374 -0.05042017 0.20099969 -0.10429278
-0.035947118 -0.19380377 0.23802614 -0.14810699 -0.2159661 -0.14053227 0.1731152 -0.085662425
-0.1550931 -0.17029242 -0.35395357 -0.077080205 -0.22474587 0.14417323 0.18117133 0.02571201
0.11742817 0.20326397 0.27151144 0.024710964 -0.027470576 -0.2997577 -0.23163179 -0.04057569
0.13742448 -0.16421413 0.09718669 0.016761586 0.011362389 -0.17428374 -0.11236313 0.03955755
-0.21695146 0.15514162 -0.07394598 0.098951615 -0.059540674 -0.029902374 -0.13536902 -0.04762986
0.12891003 0.09031282 -0.099147506 -0.07573877 -0.07385688 -0.17025252 -0.069069855 -0.18214975
0.10724599 -0.1513141 0.18141551 0.2104915 -0.21955812 -0.021952888 0.14528596 -0.252615
-0.23036614 0.12328285 0.22992288 0.041526895 -0.09239189 0.04389918 -0.2674565 -0.14891663
-0.11363426 0.037052605 -0.17754929 -0.15290806 -0.01338093 0.07688534 0.19512615 -0.03205241
-0.1998191 0.14427838 0.14782864 0.16670494 -0.13761438 -0.11527615 -0.025989832 -0.016533852
0.16872026 -0.11021568 -0.068700224 -0.09474634 -0.1900446 -0.12989524 0.13492025 0.22102992
0.12282357 0.05356408 -0.05614828 -0.1866057 -0.033333234 0.00046286717 -0.011547598 -0.02300472
-0.09814922 -0.017874124 -0.005375851 -0.0929053 -0.19740948 -0.12424734 0.21931185 -0.11108205
-0.10239751 -0.2101823 -0.06164222 0.13684501 -0.23109397 0.17905036 -0.16989106 0.13325515
-0.042296734 0.14886613 0.092551425 -0.066392645 0.11101916 -0.013103491 0.24233721 0.17618454
-0.17780241 -0.121667184 -0.15585251 0.028743245 0.03434146 -0.055521816 0.091839075 -0.11214035
0.03212698 -0.2575786 0.22147664 0.24529506 0.17424719 -0.12829301 0.13903448 0.12326081
-0.058871422 -0.17728381 -0.03069198 -0.007646032 -0.067823805 0.015318491 0.05635351 -0.15054913
-0.3871396 0.2282319 -0.2844145 -0.13279207 -0.05966432 -0.010372093 -0.11371411 -0.4019177
-0.22439155 -0.0680418 -0.28168467 -0.12865736 -0.13878207 -0.08361454 0.0142581705 -0.09054496
00000000: 0423 4dbe 72c4 033e 6875 04bd 5984 2b3e
00000010: ca51 c9bc 522f a13d 2736 243e 0b3f fbbd
00000020: b481 213e 429f 0b3d b130 0b3e c6b5 fd3c
00000030: 08a1 90bd 8141 963d 5d75 7c3d 6257 70be
00000040: 1b68 2cbe d699 373e 4ee4 653e 7b50 e53d
00000050: fd5c 563d 6f3c 943d 9f21 2f3d ccf1 273e
00000060: 4a5b e93d 6992 513e 3624 72bd dc99 0ebe
00000070: 4683 503e c44a da3c e072 3e3e 6243 223e
00000080: ca9d 0b3e 9299 0d3e 44da 15bc 8b30 9ebc
00000090: b89e fe3d 485f 633e 501b 083e 7ab1 e2bc
000000a0: 14fc 9fbe 218c a2bd 496d 483b a0e3 27be
000000b0: fd52 00bd ba31 653e 154c 00be 7f56 1cbe
000000c0: 4883 83be 098b 99be d355 67be 34bd 99be
000000d0: d9b8 9f3d 15c8 ffbd 2aa8 1d3e 25a0 773e
000000e0: 7331 98bd 7259 6d3b 787a 77be ddc8 903d
000000f0: 03f8 c5be 774f 9d3e 807b 01be 6743 9f3d
00000100: 329d 59be e0f4 4b3e 2290 5cbe 2b76 a1be
00000110: 70db afbd 4e40 2dbe 02bf a1be 2f79 63be
00000120: 5fd4 5dbe 36e0 18be 157b af3e ea71 24be
00000130: 0bd7 b6be 7a5a 5abd 128b aabe a584 57be
00000140: a08a f63d 67ed 77be c0c6 703c 9de6 273e
00000150: 35f4 e9bd d5d3 5c3c 1eda 3ebe 9bef df3d
00000160: eb9b d2bc a90e c8bd 474c 91be e37a 743e
00000170: 94da 63bd 6185 4ebd ddd2 4d3e 7497 d5bd
00000180: 493d 13bd 7f74 46be 20bd 733e 5ca9 17be
00000190: 3826 5dbe b1e7 0fbe 1c45 313e c86f afbd
000001a0: bad0 1ebe 2361 2ebe 6739 b5be 3adc 9dbd
000001b0: c823 66be 26a2 133e fa84 393e fea1 d23c
000001c0: 2e7e f03d 6e24 503e 8c03 8b3e a66e ca3c
000001d0: f909 e1bc d779 99be e230 6dbe b232 26bd
000001e0: 01b9 0c3e c027 28be d109 c73d 984f 893c
000001f0: 5029 3a3c 7077 32be a41e e6bd 1907 223d
00000200: 8628 5ebe 72dd 1e3e fd70 97bd 25a7 ca3d
00000210: ece0 73bd d3f5 f4bc 2d9e 0abe 8717 43bd
00000220: fe00 043e eef5 b83d d90d cbbd ee1c 9bbd
00000230: 4742 97bd ad56 2ebe 7f74 8dbd 7785 3abe
00000240: c9a3 db3d 15f2 1abe fdc4 393e 158b 573e
00000250: d8d3 60be 8bd6 b3bc d8c5 143e c156 81be
00000260: 1ae5 6bbe b87b fc3d e770 6b3e 1b18 2a3d
00000270: f637 bdbd a0cf 333d 0ff0 88be 9a7d 18be
00000280: 14b9 e8bd 79c4 173d 7bcf 35be ee93 1cbe
00000290: b03b 5bbc 1076 9d3d 26cf 473e 6349 03bd
000002a0: 619d 4cbe b6bd 133e 6460 173e b3b4 2a3e
000002b0: c9ea 0cbe e715 ecbd a1e8 d4bc 0072 87bc
000002c0: 01c5 2c3e c2b8 e1bd b4b2 8cbd 5e0a c2bd
000002d0: 0d9b 42be 4203 05be 8928 0a3e ab55 623e
000002e0: ed8a fb3d 0266 5b3d bdfb 65bd 9115 3fbe
000002f0: 6e88 08bd fbac f239 2332 3dbc 6574 bcbc
00000300: 7502 c9bd c16c 92bc e827 b0bb 2245 bebd
00000310: b625 4abe 6475 febd 4993 603e fc7e e3bd
00000320: c9b5 d1bd 073a 57be 8d7c 7cbd 1921 0c3e
00000330: e6a3 6cbe fa58 373e ecf7 2dbe 0a74 083e
00000340: 573f 2dbd 5d70 183e 9a8b bd3d def8 87bd
00000350: 035e e33d 06b0 56bc 3f27 783e b869 343e
00000360: d611 36be a52c f9bd cd97 1fbe f476 eb3c
00000370: a1a9 0c3d d86a 63bd 2016 bc3d d7a9 e5bd
00000380: 9597 033d 58e1 83be c6ca 623e a12e 7b3e
00000390: db6d 323e 3e5f 03be 0e5f 0e3e 2a70 fc3d
000003a0: 2923 71bd e389 35be bf6d fbbc 918b fabb
000003b0: 35e7 8abd 68fa 7a3c f0d2 663d 8d29 1abe
000003c0: 2937 c6be a0b5 693e c79e 91be a5fa 07be
000003d0: 9362 74bd b6ef 29bc f1e2 e8bd 28c8 cdbe
000003e0: e6c6 65be 8059 8bbd f938 90be c1be 03be
000003f0: e31c 0ebe 1a3e abbd 1a9b 693c a36f b9bd

net.3.bias f4 [20]
0.16912241 0.042315975 -0.4374164 -0.3698918 0.13805948 -0.14708924 0.116711676 -0.21785554
-0.18314248 0.30594322 -0.10381331 -0.025597483 -0.39716873 0.04410385 0.061581258 0.2078683
-0.10748378 0.11126037 0.25250128 0.2711154
00000000: 6d2e 2d3e 8453 2d3d 0bf5 dfbe 7562 bdbe
00000010: 775f 0d3e 909e 16be 8806 ef3d 8615 5fbe
00000020: b489 3bbe 97a4 9c3e 139c d4bd d0b1 d1bc
00000030: b359 cbbe 3da6 343d a13c 7c3d 6ddb 543e
00000040: 7520 dcbd 7adc e33d d947 813e a3cf 8a3e

net.6.weight f4 [15, 20]
0.108453035 0.11829258 -0.14898752 -0.32296905 0.06424288 -0.2379897 0.04259614 -0.3215562
0.047486298 0.2154143 -0.08445855 -0.21301761 -0.25947413 0.10175286 -0.012439645 0.08824341
0.17975102 0.2529213 0.015171591 0.09727431 0.036274124 -0.04932877 -0.18076138 -0.30811346
0.2203743 -0.18562083 0.050677035 -0.03061488 -0.1971637 0.07284161 -0.1569354 0.0039583435
-0.32206652 -0.17047977 0.17332657 -0.14271168 0.104182355 -0.18331394 0.14177981 0.111785084
-0.05164291 0.025842788 -0.11383147 -0.21710746 -0.12667742 -0.11502445 0.20423317 -0.07594592
-0.09570693 0.16823794 -0.03920925 0.016997753 -0.15875345 -0.23374839 -0.059487984 0.25137284
-0.26110166 0.12416182 -0.100159936 0.15561473 0.1288652 0.06979557 -0.40646908 -0.14202411
0.2619991 -0.3821625 0.16718803 -0.22146165 -0.25070372 -0.057635807 -0.094800696 -0.15520959
-0.46894446 -0.061456762 -0.012715025 0.08302997 0.09709807 0.096193165 0.2581179 -0.11845138
0.1722615 -0.115611404 -0.15660912 0.04953835 0.029220382 -0.29343948 0.032916952 0.06126128
0.023282291 0.06807063 -0.1164288 0.026116729 -0.17187828 0.1105716 0.12531447 -0.01522544
0.23979844 -0.25770912 -0.22789414 0.068686716 0.0474609 0.20562506 -0.39455426 -0.32343388
0.101968214 0.076774396 -0.12009565 -0.010210275 0.014634195 0.18892345 -0.018902857 0.14288914
-0.42111638 0.16459498 0.120619915 0.014891807 -0.10164651 0.15753716 0.13224982 -0.01921245
0.11727499 -0.092782795 0.08022648 -0.051156722 0.07121651 0.057692345 0.09239126 -0.119493745
0.099003114 0.040156987 0.080697306 0.17086795 -0.12966329 0.22211002 0.16421624 -0.11330663
-0.08886286 0.012947249 -0.04173292 -0.044948597 -0.09441971 -0.121256396 0.5019347 0.5171786
-0.53051436 0.6317582 -0.47866428 0.3453352 0.20836544 -0.35530445 0.35453138 -0.2481302
0.6621133 -0.45881516 -0.44632757 -0.33455086 -0.38724267 -0.23836118 -0.32581583 -0.4379075
-0.04272432 0.0018337658 -0.048971035 -0.16334143 0.1552862 -0.20380054 -0.101841114 -0.13887532
-0.030367548 0.037833747 0.07945629 -0.11330327 -0.037883207 0.15021816 0.059356336 0.19974345
0.097462334 0.25373536 0.11905387 -0.028906941 -0.3870588 -0.40208852 0.33582717 0.48746786
-0.30801666 0.5356112 -0.26175055 0.48442808 0.21908212 -0.47215608 0.17094347 -0.4584414
0.3214727 -0.39476466 -0.2910815 -0.1958074 -0.09610724 -0.40691984 -0.56059766 -0.45855042
0.12215713 -0.048443757 -0.3562528 -0.13180175 0.06475481 -0.21609432 0.21653354 -0.038929347
-0.011056414 -0.10322143 -0.28668946 0.17440744 -0.3278721 0.026087383 0.16258934 0.09794109
-0.119326785 0.21532014 0.2919521 0.111903526 -0.17284657 -0.20640303 0.4950281 0.58652693
-0.35342428 0.5352947 -0.31369036 0.1629702 0.48485923 -0.26696774 0.020034421 -0.466304
0.32739884 -0.10183038 -0.19855516 -0.1999499 -0.090578414 -0.36060977 -0.48112285 -0.35230854
-0.1444927 0.20868865 -0.04139453 0.04784239 0.058834143 0.08303982 0.16539308 -0.22227259
-0.03895258 -0.06163861 -0.024390137 0.14941755 -0.27906546 0.16718577 -0.08672699 -0.16712482
00000000: a01c de3d 6143 f23d 2f90 18be 335c a5be
00000010: c591 833d 92b3 73be 4a79 2e3d 04a3 a4be
00000020: fe80 423d 9195 5c3e 9bf8 acbd 4a21 5abe
00000030: cbd9 84be ce63 d03d a7cf 4bbc f6b8 b43d
00000040: a710 383e e77e 813e 4492 783c c137 c73d
00000050: 2d94 143d f70c 4abd 8319 39be 0cc1 9dbe
00000060: cda9 613e 6313 3ebe b992 4f3d 0fcc fabc
00000070: 48e5 49be fb2d 953d acb3 20be feb4 813b
00000080: e7e5 a4be 4092 2ebe 857c 313e 0323 12be
00000090: 8f5d d53d a6b6 3bbe ba2e 113e 94ef e43d
000000a0: 8487 53bd 41b4 d33c 7920 e9bd 6b51 5ebe
000000b0: bab7 01be f091 ebbd 8022 513e 8989 9bbd
000000c0: ff01 c4bd 9146 2c3e e199 20bd df3e 8b3c
000000d0: 4490 22be bd5b 6fbe aca9 73bd f1b3 803e
000000e0: 1eaf 85be 8d48 fe3d a720 cdbd 7859 1f3e
000000f0: 3df5 033e fbf0 8e3d b71c d0be c56e 11be
00000100: bf24 863e ceaa c3be 5733 2b3e d8c6 62be
00000110: 3d5c 80be 8613 6cbd de26 c2bd 43ef 1ebe
00000120: 7d19 f0be 16ba 7bbd ae52 50bc 9e0b aa3d
00000130: 5adb c63d ec00 c53d 0828 843e a396 f2bd
00000140: 5265 303e acc5 ecbd 245e 20be bae8 4a3d
00000150: 955f ef3c b33d 96be edd3 063d 1ced 7a3d
00000160: 81ba be3c 9d68 8b3d 3972 eebd c0f2 d53c
00000170: dc00 30be 5d73 e23d 7052 003e 2074 79bc
00000180: b98d 753e 73f2 83be 155d 69be 9fab 8c3d
00000190: 5c66 423d 608f 523e 0403 cabe 2099 a5be
000001a0: b6d4 d03d e53b 9d3d b5f4 f5bd ff48 27bc
000001b0: 43c4 6f3c 2675 413e 2ada 9abc 8851 123e
000001c0: 919c d7be 968b 283e 9307 f73d c4fc 733c
000001d0: 0c2c d0bd 6c51 213e 7f6c 073e 6e63 9dbc
000001e0: df2d f03d e804 bebd c84d a43d b689 51bd
000001f0: f6d9 913d cf4e 6c3d a137 bd3d 23b9 f4bd
00000200: 25c2 ca3d a77b 243d a144 a53d 02f8 2e3e
00000210: 74c6 04be cf70 633e 4d28 283e 4e0d e8bd
00000220: bbfd b5bd b320 543c 23f0 2abd 051c 38bd
00000230: 1f5f c1bd 4655 f8bd cb7e 003f d165 043f
00000240: cacf 07bf e8ba 213f 7c13 f5be c6cf b03e
00000250: c05d 553e 77ea b5be 2385 b53e d815 7ebe
00000260: 4280 293f d2e9 eabe 0c85 e4be 404a abbe
00000270: ac44 c6be f414 74be 55d1 a6be 6935 e0be
00000280: b2ff 2ebd f85a f03a da95 48bd fa42 27be
00000290: 5803 1f3e 17b1 50be 1392 d0bd 5535 0ebe
000002a0: 5dc5 f8bc 8ff7 1a3d fbb9 a23d 8b0b e8bd
000002b0: 6c2b 1bbd cad2 193e a11f 733d 8c89 4c3e
000002c0: 559a c73d 9ae9 813e 84d2 f33d 40ce ecbc
000002d0: 922c c6be 8cde cdbe 8af1 ab3e 6395 f93e
000002e0: 5cb4 9dbe d11d 093f 2b04 86be f506 f83e
000002f0: 1057 603e 71be f1be ce0b 2f3e d5b8 eabe
00000300: 1298 a43e 981e cabe a208 95be bc81 48be
00000310: dfd3 c4bd cc57 d0be 5483 0fbf 1fc7 eabe
00000320: 842d fa3d f66c 46bd c466 b6be 0af7 06be
00000330: 2b9e 843d d447 5dbe f8ba 5d3e 6174 1fbd
00000340: f625 35bc c265 d3bd f6c8 92be dd97 323e
00000350: dade a7be 35b5 d53c d27d 263e 5795 c83d
00000360: 9a61 f4bd e27c 5c3e bf7a 953e ad2d e53d
00000370: b1fe 30be 515b 53be 5374 fd3e a126 163f
00000380: 07f4 b4be 1309 093f 069c a0be a9e1 263e
00000390: 783f f83e ffaf 88be 3a1f a43c 66bf eebe
000003a0: d2a0 a73e 728c d0bd 0b52 4bbe abbf 4cbe
000003b0: 2d81 b9bd d8a1 b8be bc55 f6be c961 b4be
000003c0: e5f5 13be 7ab2 553e 508d 29bd 62f6 433d
000003d0: 12fc 703d c810 aa3d ce5c 293e 6d9b 63be
000003e0: be8c 1fbd c478 7cbd d3cd c7bc ea00 193e
000003f0: abe1 8ebe bf32 2b3e ec9d b1bd c522 2bbe

net.6.bias f4 [15]
0.1390681 0.4342785 0.34821346 0.21367824 0.26794896 0.25264016 0.3455515 -0.7692272
0.37460175 -0.75480866 0.4171784 -0.7968227 0.4263126 0.3560736 -0.31544623
00000000: de67 0e3e c059 de3e 0949 b23e 78ce 5a3e
00000010: 9b30 893e 0d5a 813e 20ec b03e 13ec 44bf
00000020: cdcb bf3e 243b 41bf 6898 d53e 93fc 4bbf
00000030: a545 da3e 474f b63e 2b82 a1be

net.9.weight f4 [10, 15]
-0.08722399 0.0945253 0.22585237 0.0819567 0.21123725 0.26191518 0.24211408 -0.56867206
0.3452011 -0.423362 0.14764908 -0.6969667 0.26329646 0.22497086 -0.19685172 0.09294468
-0.057832103 -0.16952883 0.2716288 -0.026680335 -0.17087674 -0.074288085 -0.34454927 -0.32991478
-0.36288783 -0.13313143 -0.3587651 0.047151804 -0.049862307 -0.21424903 -0.097366415 0.008687246
0.07438357 -0.12809768 -0.33747542 -0.14485565 -0.32627603 0.8293868 -0.20707448 0.51915205
-0.050373964 0.4796064 -0.32499716 0.060120575 0.3385966 0.010711273 -0.002466229 -0.020474833
0.11267694 -0.06720658 -0.03168438 -0.24153265 0.46315917 -0.033593565 0.062501065 -0.15975684
0.17438425 -0.095845126 0.20164165 0.41696087 0.17591143 0.22841744 0.10860825 0.15158126
0.106422454 0.10550391 0.13842432 -0.690443 0.17297897 -0.5819048 0.06537411 -0.4091691
0.34091294 0.23273923 -0.36218682 0.29826102 0.122735314 0.057157528 0.16895732 0.38523117
0.19302395 0.2429214 -0.34411615 0.09347453 -0.3335457 0.0067042354 -0.45774627 0.11183966
-0.038654257 -0.33028507 0.01722918 0.07147018 -0.21687639 -0.2473696 -0.45803684 -0.035236817
-0.318666 0.61885357 -0.35622042 0.66675776 -0.40380323 0.2683832 -0.301656 0.07492075
0.346362 -0.058589846 -0.15133984 -0.1835851 -0.39282787 0.06738727 0.10139005 0.00042760567
-0.0027317356 -0.1095571 0.16371575 -0.23597103 0.34626463 -0.032001097 0.09275367 0.1258495
0.20915017 0.10615028 0.26574862 -0.12202083 0.4022019 0.34088656 0.07171269 -0.30128333
0.41480002 -0.42174625 0.1605272 -0.48326182 0.021908656 0.12111475 -0.15387653 0.0117153395
0.14839828 0.31442085 0.17150368 0.16406368 0.11170776 0.14338674 -0.60818195 0.23035286
-0.5680653 0.28243843 -0.31219396 0.09833438 0.22114033 -0.27810326
00000000: 7ea2 b2bd 7b96 c13d d845 673e ead8 a73d
00000010: 944e 583e bf19 863e c1ec 773e 7e94 11bf
00000020: 33be b03e e7c2 d8be 5231 173e 696c 32bf
00000030: cbce 863e c35e 663e 7f93 49be c859 be3d
00000040: 5be1 6cbd f798 2dbe ee12 8b3e b890 dabc
00000050: 50fa 2ebe 5a24 98bd c368 b0be 97ea a8be
00000060: 6fcc b9be 9b53 08be 0fb0 b7be 4022 413d
00000070: 6b3c 4cbd 1964 5bbe 0b68 c7bd f354 0e3c
00000080: 6a56 983d 0a2c 03be 94c9 acbe 0a55 14be
00000090: a70d a7be b152 543f 550b 54be 26e7 043f
000000a0: ee54 4ebd f88e f53e 0766 a6be fe40 763d
000000b0: 895c ad3e 567e 2f3c 75a0 21bb d6ba a7bc
000000c0: 2bc3 e63d 9aa3 89bd 7bc7 01bd 5654 77be
000000d0: 3323 ed3e 6899 09bd 8f00 803d 4c97 23be
000000e0: c991 323e 734a c4bd 267b 4e3e e57b d53e
000000f0: 2022 343e 43e6 693e 016e de3d 1e38 1b3e
00000100: 04f4 d93d 6f12 d83d 1bbf 0d3e dfc0 30bf
00000110: 6621 313e b7f7 14bf dde2 853d 9d7e d1be
00000120: 248c ae3e 3153 6e3e 8d70 b9be abb5 983e
00000130: a75c fb3d 031e 6a3d 2603 2d3e 053d c53e
00000140: 12a8 453e 63c0 783e fe2f b0be 936f bf3d
00000150: 81c6 aabe 34af db3b b85d eabe 310c e53d
00000160: ed53 1ebd 201b a9be 3624 8d3c f55e 923d
00000170: d814 5ebe 754e 7dbe ce83 eabe 7b54 10bd
00000180: 3128 a3be 306d 1e3f 8662 b6be a3b0 2a3f
00000190: 4cbf cebe 8669 893e a872 9abe 0d70 993d
000001a0: 5c56 b13e e8fb 6fbd d5f8 1abe bcfd 3bbe
000001b0: bc20 c9be 5602 8a3d 96a5 cf3d 4330 e039
000001c0: eb06 33bb 795f e0bd 1aa5 273e 64a2 71be
000001d0: 9949 b13e 9513 03bd a3f5 bd3d b1de 003e
000001e0: 762b 563e 5165 d93d 3410 883e 0fe6 f9bd
000001f0: 68ed cd3e af88 ae3e 1ade 923d cf41 9abe
00000200: ab60 d43e 20ef d7be 3e61 243e 186e f7be
00000210: c879 b33c 030b f83d cf91 1dbe b2f1 3f3c
00000220: b8f5 173e c5fb a03e a99e 2f3e 4f00 283e
00000230: 0ac7 e43d f9d3 123e d0b1 1bbf 9fe1 6b3e
00000240: ba6c 11bf c59b 903e e3d7 9fbe 8963 c93d
00000250: 9c72 623e 8d63 8ebe

net.9.bias f4 [10]
0.6577953 0.4634106 -1.041998 -0.29041016 0.64134926 0.5486608 -0.7585805 -0.1253149
0.603148 0.78551596
00000000: 4665 283f 2744 ed3e 3160 85bf a4b0 94be
00000010: 772f 243f 0975 0c3f 5532 42bf 8d52 00be
00000020: e867 1a3f 9317 493f

net.11.weight f4 [5, 10]
0.10132343 -0.03146148 -0.2104957 -0.10545641 0.032802697 -0.05098752 0.115302205 -0.48362994
6.7070716e-05 -0.15112263 -0.32143193 -0.1579139 0.023299057 -0.082709126 0.07344192 -0.16732499
0.080533594 -0.3488233 0.2099241 -0.09581926 -0.12795486 -0.83323413 0.396344 0.027230283
-0.15303236 0.0019615663 0.3544071 -0.024785412 -0.34452477 -0.26568562 -0.27070105 -0.7967706
0.754288 0.3299392 -0.45400247 -0.28587216 0.32985973 0.09580861 -0.26625314 -0.4131003
-0.40407386 -0.67170876 0.107707515 -0.039628692 -0.58228725 -0.43934983 0.53020686 0.030977363
-0.25234643 -0.34721294
00000000: a982 cf3d c1dd 00bd 2f8c 57be 88f9 d7bd
00000010: 1f5c 063d 4ad8 50bd 9023 ec3d 589e f7be
00000020: 51a8 8c38 e4bf 1abe ba92 a4be 2eb4 21be
00000030: aadd be3c 6763 a9bd b868 963d 3e57 2bbe
00000040: ccee a43d f898 b2be 58f6 563e e33c c4bd
00000050: 9906 03be d54e 55bf 9aed ca3e 0b12 df3c
00000060: 84b4 1cbe 9f8d 003b d974 b53e c70a cbbc
00000070: 8d65 b0be f207 88be 5499 8abe 28f9 4bbf
00000080: 0519 413f caed a83e 0373 e8be d65d 92be
00000090: 60e3 a83e 4e37 c43d 5552 88be e281 d3be
000000a0: c5e2 cebe 1bf5 2bbf c295 dc3d b251 22bd
000000b0: c710 15bf 76f2 e0be a3bb 073f 3dc4 fd3c
000000c0: 8d33 81be e5c5 b1be

net.11.bias f4 [5]
0.16557357 -0.49255612 -0.47478393 -0.38075083 -0.9754917
00000000: 1e8c 293e 5130 fcbe e116 f3be c6f1 c2be
00000010: d3b9 79bf
