code/2model.pkl (torch_old, 13055 bytes, 10 tensors)

net.0.weight f4 [20, 95]
000000 62 02 b2 3d 18 c1 6b 3d fa 25 a3 bd d2 07 7d bd
       0.08691861 0.057557195 -0.07966228 -0.061775036
000010 4d b2 75 bd 65 0b 20 3a 54 df 08 3d 4a 14 2b bd
       -0.059984494 0.00061052135 0.033416107 -0.041767396
000020 2e 2f 39 bd a8 a1 66 3d 08 3f 00 bd e0 a1 52 bd
       -0.04521101 0.05630651 -0.03131011 -0.051423907
000030 f1 bd 4c 3d 2c 2a 00 3d 6f 8b 49 bd fa 49 0f 3d
       0.04998583 0.03129022 -0.04920524 0.03498266
000040 a9 3e 83 bc 40 ee 1f 3d 26 4a bd bd ad 07 9d bd
       -0.01602109 0.039045572 -0.09242658 -0.0766748
000050 9e 6d d0 3c 79 c0 d7 bd cd bf e7 bd 1f 53 82 3d
       0.025442895 -0.10534758 -0.1131588 0.0636351
000060 91 6b c5 3c c1 ce bb 3d 58 a7 71 bd 42 77 21 3d
       0.024099143 0.091702946 -0.058997482 0.039420374
000070 c1 7b 22 bc 67 a8 5d bd 0a 07 b0 bb 96 98 1f 3d
       -0.009917201 -0.05411568 -0.005371933 0.038963877
000080 5e 8c 9f bc 88 e4 c7 bd 1b 2c d9 bd 37 e3 3c 3d
       -0.019476112 -0.09760386 -0.106041156 0.046115126
000090 2d 26 ad 3b 77 8b d1 3c 5c 9d 89 3c 8c 31 27 3d
       0.005284092 0.025579197 0.016798668 0.040818736
0000a0 3f b3 08 3d 09 87 a5 3d 55 a6 3c bd 3f 04 03 3c
       0.033374067 0.080823965 -0.046057064 0.007996618
0000b0 6b 00 7c bd 29 ea 8c 3d 80 9d 19 bc ac 64 df bc
       -0.061523836 0.068806 -0.00937593 -0.027269684
0000c0 23 31 9b 3c 41 78 81 bd 93 06 92 bc 81 ee b4 3b
       0.018944329 -0.06321765 -0.0178254 0.005521596
0000d0 c2 4d 94 3d 14 df 24 3d aa 43 5d bd 17 a6 02 3b
       0.072413936 0.040251806 -0.054019608 0.0019935423
0000e0 65 ad 7c bd 3d eb c9 bc 06 f1 c3 bd e7 7e ea bd
       -0.0616888 -0.024648303 -0.09567456 -0.11449986
0000f0 b9 1c c3 3d da 20 54 3d c2 b3 b0 bd 5e a6 bc bd
       0.09526963 0.051789142 -0.08628036 -0.092114195
000100 b8 a5 5a 3c 10 26 3c 3d 6c b0 88 bd 69 f5 dc bd
       0.0133451745 0.045934737 -0.06674275 -0.10788996
000110 9d a1 85 3d b3 3b f7 3c e6 db e1 3c 8d 5c 64 bd
       0.06524966 0.030179834 0.027570676 -0.055752326
000120 33 58 df bb 13 6e 8e 3d c5 e3 c2 bd 0c 96 94 3c
       -0.006815934 0.06954589 -0.095161 0.018137954
000130 d5 19 64 3d f5 91 bb 3d be 11 92 bc 61 4c 0e 3d
       0.055688698 0.091586985 -0.017830726 0.03474081
000140 be 8a ed bd 17 25 be 3c 62 e7 ab bd 3c bb 98 bd
       -0.115987286 0.023211045 -0.08393742 -0.07457587
000150 79 f4 6f 3d 26 2d ea 3c 85 89 3d bd 27 b1 73 3d
       0.058582757 0.028585982 -0.046273727 0.059495118
000160 ff bf 19 3c 4d 79 1d 3d 6d 58 d0 bd 6c b9 40 ba
       0.009384154 0.03844576 -0.10173116 -0.0007351849
000170 86 49 68 bd fd ed 00 be 63 3e 4f bd 30 a8 1d 3c
       -0.056710742 -0.12590785 -0.050596606 0.009622619
000180 f6 ed d9 bd 8f 4f b9 bd 05 00 37 3d ed e6 fa bc
       -0.106410906 -0.09048378 0.044677753 -0.030627692
000190 10 97 6a bd ad 16 8d 3d 15 35 5a 3d 5f 69 bb bd
       -0.05727297 0.06889091 0.05327328 -0.09150957
0001a0 b8 4d ed 3d 6e 9d 36 bd 95 65 1b bc 52 f4 48 bd
       0.11587089 -0.04458373 -0.009484668 -0.049061127
0001b0 f7 3a b4 3d 57 cd 40 3d f2 c2 5a bb 7c 04 ad 3d
       0.08800309 0.047070827 -0.0033380357 0.08448121
0001c0 4d cf 82 3d 27 97 66 3d c4 af 7c bd 23 3e 2a 3c
       0.06387196 0.056296494 -0.06169106 0.010390791
0001d0 24 b2 8c 3d 0a 78 22 3c c6 81 95 bd f6 fb 8f 3d
       0.06869915 0.009916315 -0.07300143 0.070304796
0001e0 e4 4b a2 3d 9d 2d af 3d 6b 77 d7 3d b8 88 b3 bc
       0.07924631 0.08553622 0.10520824 -0.021915779
0001f0 7a 95 ec 3c aa 98 2e bd d2 8e 04 bd ef 17 18 3d
       0.02887987 -0.04262606 -0.032362767 0.0371322
000200 b4 02 88 bb d6 38 94 3d 0b a9 fb ba 33 6a 17 3c
       -0.004150713 0.07237403 -0.0019200159 0.009241628
000210 31 4b 9d bd bb 9c 01 3e 56 5c 6c 3c b9 81 a9 bd
       -0.07680357 0.12657444 0.0144263115 -0.08276696
000220 d7 b6 91 3b f4 fc a4 bd 88 99 47 3d 51 cc 19 bb
       0.004446845 -0.080560595 0.048730403 -0.002346773
000230 ed 94 f0 3c fb 95 00 bd 32 60 40 3d 14 f8 b5 3c
       0.029367888 -0.031393033 0.04696674 0.02221302
000240 1a 1a 80 bd cd 1d be bc 17 46 1f 3c 09 99 f0 3c
       -0.062549785 -0.02320757 0.009721301 0.029369848
000250 6b d1 51 bd 7c 63 52 3d 3f 08 c2 3c ce 3f 05 bc
       -0.051225107 0.051364407 0.023685573 -0.008132888
000260 aa 6f 6a 3c 4e dd 62 bd 0c 07 36 bd a9 d1 73 bd
       0.014308849 -0.055386834 -0.044440314 -0.05952612
000270 91 f7 f6 3c a9 33 3b bd f5 c6 63 3d 83 62 a8 3d
       0.030147346 -0.045703564 0.055609662 0.082219146
000280 b1 35 cd 3c 45 1e a4 3d db 8f 87 3c f5 9a 96 3d
       0.025050016 0.08013586 0.016548088 0.073537745
000290 d1 81 8f bd 35 6e 90 bc 76 c6 e3 3c 28 6d 73 3c
       -0.070071824 -0.017630676 0.027804594 0.014857568
0002a0 1f 28 31 bc ea de b4 3c 10 11 9e bd 8e da c9 3d
       -0.010812788 0.02207895 -0.07718098 0.09856139
0002b0 e2 05 97 3d 95 30 86 bd bb b5 af bd 66 0b 69 bd
       0.07374169 -0.06552235 -0.08579584 -0.056895636
0002c0 c2 9e 7b 3d 36 71 7e 3d 32 89 25 bd fe 18 d0 3c
       0.0614307 0.062119685 -0.040414043 0.025402542
0002d0 42 4a a2 bc 44 fc 7f 3d b2 3e 87 bd 6a 74 a2 bc
       -0.0198108 0.06249644 -0.06603755 -0.019830901
0002e0 26 ff 7f 3d c6 fd a4 3d 1b 05 62 bd 03 17 35 bc
       0.062499188 0.08056216 -0.05518065 -0.01105285
0002f0 47 98 2c 3d cf 49 1c 3b 12 7a 88 3d 1f 14 52 bb
       0.04213741 0.0023847704 0.06663908 -0.003205545
000300 04 58 c3 bc aa 24 a4 bc d5 46 3d bd 12 4b 41 3d
       -0.02384568 -0.020037014 -0.04621013 0.047190733
000310 78 d1 78 bd 7e 99 43 3d 8e 58 44 3d 7e f0 7a 3d
       -0.06074664 0.047753803 0.047936015 0.061264507
000320 68 8f fa 3b 9c ab dd bc 50 5c e6 3c 59 95 57 bd
       0.00764649 -0.027059369 0.02812019 -0.052632663
000330 73 1a 1a 3c dd d4 83 bd a8 8a 88 bd 8d 48 f3 3a
       0.00940572 -0.06437085 -0.066670716 0.001856105
000340 ea 4d c2 3d 4f f6 b6 bc 05 06 17 3c 52 bd 34 bc
       0.09487517 -0.022334246 0.009217744 -0.011031466
000350 77 79 e4 bc 4d 9c 2d 3b 47 71 84 bd a8 e5 3c 3d
       -0.02788995 0.0026490868 -0.064669184 0.046117455
000360 31 de 2a 3d c6 ac 59 bd 31 15 88 bd c0 b5 b8 3d
       0.041715804 -0.053143285 -0.06644667 0.09019041
000370 3c f0 ab bd 22 a4 89 bc ee e6 89 3c 8f 9e 2b bc
       -0.083954304 -0.016801897 0.016833749 -0.010474815
000380 f9 3e a4 3d 06 d2 2d 3c f6 ef 24 3d 81 89 56 bd
       0.080198236 0.0106091555 0.040267907 -0.052377228
000390 46 b7 2d 3d ee 4b 44 bd 82 30 8c 3c 2a df bc bd
       0.04241111 -0.047923975 0.017112974 -0.09222253
0003a0 0b 2d ba bd 43 04 a1 3d c1 79 36 bd 05 84 95 3d
       -0.090906225 0.07862141 -0.044549707 0.07300571
0003b0 c3 9d 54 3d e6 70 8f 3d e8 0b 53 3d 4b 60 c4 bb
       0.051908266 0.070039555 0.051525027 -0.0059929243
0003c0 58 57 7d 3d 97 5b 03 bd 2d 0c e7 bd 54 83 9b 3d
       0.061850876 -0.03206977 -0.11281619 0.07593408
0003d0 38 49 92 bc c7 f8 97 bd 88 97 89 3d f4 68 85 3d
       -0.017857179 -0.074204974 0.067183554 0.06514159
0003e0 8c e4 7f bd 96 19 30 3d f3 2e 74 3d 0b c3 67 3d
       -0.06247382 0.04299315 0.059615087 0.05658249
0003f0 01 ca b2 3d 8d 36 a5 bd 08 50 90 bd 75 e8 b4 bd
       0.087299354 -0.08067045 -0.07046515 -0.088334

net.0.bias f4 [20]
000000 bb da d9 3d f3 0a 7a be 07 2f 82 3d a4 3e b8 bd
       0.10637423 -0.2441824 0.06356626 -0.08996323
000010 b2 75 a4 3d 66 c1 dc bd 07 54 2c 3e 16 31 19 3e
       0.08030261 -0.10779075 0.16828929 0.14960131
000020 37 d1 16 3d 74 82 79 3d 8b a3 d0 3d bd 47 c5 3c
       0.036820617 0.060915425 0.10187443 0.024082059
000030 55 1e 0f 3e 81 45 88 bd a8 44 61 be 9f b3 18 bc
       0.13976415 -0.06653882 -0.21998847 -0.009320169
000040 5d 9f 22 3e a8 e8 9a 3d 3b 59 05 3d ee c0 7f bd
       0.15881105 0.07563907 0.0325558 -0.06243985

net.3.weight f4 [20, 20]
000000 1d eb 4a be ce d8 02 3e 90 91 f2 bc 72 39 2b 3e
       -0.19816251 0.12778017 -0.029610425 0.16721132
000010 99 db b1 bc a5 ee 9e 3d 23 b8 25 3e 88 7c f5 bd
       -0.021711158 0.077603616 0.16183524 -0.11986643
000020 fa 38 24 3e 78 46 16 3d d6 de 0d 3e 15 a1 05 3d
       0.1603736 0.036688298 0.13854536 0.032624323
000030 31 ca 8a bd 70 24 96 3d af a6 73 3d 82 16 71 be
       -0.06776846 0.07331169 0.059485134 -0.23543742
000040 2f ca 29 be b8 3b 3a 3e 02 59 68 3e 3e f8 e4 3d
       -0.16581033 0.18186843 0.22690204 0.11180161
000050 cb a7 5e 3d dd 3a 93 3d d7 33 38 3d 13 c2 27 3e
       0.05435924 0.07188962 0.044971313 0.16382627
000060 b2 e1 ee 3d a9 93 50 3e 55 54 6d bd 18 d6 0b be
       0.11664142 0.20368828 -0.057941753 -0.13655889
000070 9b 0d 53 3e 71 f1 ed 3c 33 fa 40 3e f4 d5 23 3e
       0.20610659 0.029045792 0.18845443 0.15999585
000080 9d 62 0e 3e e7 92 0d 3e 82 53 30 bc 03 64 ad bc
       0.13904805 0.1382557 -0.010762097 -0.021165853
000090 47 d6 01 3e 1c eb 65 3e c7 6b 0a 3e 5f 95 e0 bc
       0.12679397 0.22452968 0.13517676 -0.027414976
0000a0 53 1e a1 be 1e 96 a1 bd c4 33 1b 3a f1 12 28 be
       -0.31468448 -0.07889961 0.00059204944 -0.16413476
0000b0 8a 88 0c bd 7f f0 64 3e fe f6 fe bd 01 fb 1e be
       -0.0343099 0.22357367 -0.12449454 -0.15525438
0000c0 02 cd 84 be a6 f0 9a be 2b 16 6a be 7d c4 9a be
       -0.2593766 -0.30261725 -0.22860019 -0.30228034
0000d0 1f d6 99 3d a5 23 00 be 13 55 1f 3e 32 71 7c 3e
       0.075115435 -0.12513597 0.15559797 0.24652556
0000e0 7b 9d 9d bd a6 5d 63 3a 70 7c 7a be 05 37 8d 3d
       -0.07696053 0.00086733175 -0.24461532 0.0689526
0000f0 8f fd c6 be 89 83 9d 3e 10 b2 03 be 05 f2 9e 3d
       -0.38865325 0.30764416 -0.12860894 0.07761005
000100 54 54 5c be 13 c5 4b 3e 82 d6 5b be 39 a5 a2 be
       -0.21516544 0.19899397 -0.21468547 -0.3176668
000110 6f 98 b4 bd e1 b3 2f be e9 f5 a2 be 43 45 65 be
       -0.08818137 -0.17158462 -0.3182824 -0.22389702
000120 f5 88 60 be 08 16 19 be d6 40 b0 3e 69 c8 1f be
       -0.21927245 -0.1494981 0.34424466 -0.15603794
000130 fa 0a b8 be f8 3b 64 bd 17 d7 ab be b3 35 59 be
       -0.35945874 -0.055721253 -0.33562538 -0.21211891
000140 ec e2 fa 3d 81 30 79 be 42 8e 8b 3c 10 c6 27 3e
       0.12250313 -0.24334909 0.017035607 0.16384149
000150 96 1a e4 bd 15 41 51 3c bb bb 3d be 05 61 e5 3d
       -0.11137883 0.012771864 -0.18528645 0.11200146
000160 c3 bc bf bc 8e cf c2 bd cc f8 8f be 89 22 76 3e
       -0.023405438 -0.09512244 -0.28119504 0.24036612
000170 fb 49 58 bd 0c a7 4e bd 42 12 4c 3e 0e 83 db bd
       -0.05280493 -0.050452277 0.1992884 -0.10718356
000180 2a c7 08 bd 89 cd 43 be 96 39 76 3e 74 4e 17 be
       -0.033393063 -0.19121374 0.24045405 -0.14776021
000190 19 64 5f be 9b 90 0f be 95 c6 2e 3e 7a d0 af bd
       -0.21815528 -0.14020006 0.1706794 -0.085846856
0001a0 27 d3 21 be fc ae 2e be fc d2 b4 be ec 05 a3 bd
       -0.15803204 -0.17058939 -0.35317218 -0.07960114
0001b0 a5 94 68 be 33 ea 10 3e 1c cb 36 3e fc 8e c2 3c
       -0.22712953 0.1415184 0.17850918 0.02374982
0001c0 10 a3 ea 3d 4f e8 4f 3e f1 d8 8b 3e f0 14 f0 3c
       0.11456883 0.20303462 0.2731395 0.029306859
0001d0 7e 8e f6 bc c2 dd 9a be 9b 19 70 be 94 a3 2c bd
       -0.030097242 -0.30247313 -0.23447268 -0.042148188
0001e0 7a 1f 0f 3e 76 d2 28 be f4 2d cc 3d 9f 98 8a 3c
       0.13976851 -0.16486534 0.09969702 0.016918479
0001f0 03 6f 6d 3c 5b 2f 32 be 3d ca e7 bd 9c fe 2c 3d
       0.014491799 -0.17400877 -0.11317871 0.042235002
000200 24 9c 5b be 00 c9 21 3e f8 98 91 bd eb dc ce 3d
       -0.21446282 0.15799332 -0.071092546 0.101007305
000210 8d 65 67 bd 5d 05 f3 bc e3 4d 0c be d6 b2 64 bd
       -0.05649333 -0.029665643 -0.13701586 -0.055834614
000220 9c de 06 3e 3a cc be 3d 2f ca c4 bd ea 57 98 bd
       0.13170856 0.09316297 -0.09608876 -0.07438643
000230 40 e2 9b bd e2 53 2e be 00 77 92 bd f6 88 3a be
       -0.07611513 -0.17024186 -0.07151604 -0.18216309
000240 ee 81 d5 3d e4 3a 1b be 97 e7 39 3e 08 2e 57 3e
       0.10425173 -0.15159184 0.18154751 0.21013653
000250 62 63 63 be f6 c4 b6 bc 89 01 12 3e d2 5d 82 be
       -0.2220588 -0.022310715 0.14258398 -0.25462204
000260 b8 ee 6e be 90 77 fc 3d f5 cb 6b 3e 82 af 2c 3d
       -0.23333251 0.12327492 0.23027022 0.042159565
000270 15 b8 c2 bd 95 93 28 3d 86 b8 89 be 42 0c 19 be
       -0.09507767 0.04115637 -0.26898593 -0.14946082
000280 81 37 ed bd 25 21 19 3d 7f 3a 38 be 49 c6 1c be
       -0.11582852 0.037385125 -0.17991064 -0.15310015
000290 03 b3 85 bc 87 c1 9c 3d 69 a4 48 3e 59 55 0d bd
       -0.016320711 0.076541 0.19593967 -0.034505222
0002a0 33 10 4f be 5c 01 11 3e bc 9c 14 3e 8e c2 28 3e
       -0.20221023 0.14160675 0.14512914 0.16480467
0002b0 dc d8 0f be f8 89 ec bd bc 17 c8 bc 95 04 42 bc
       -0.14047569 -0.11549753 -0.02442538 -0.011841913
0002c0 2d 16 2a 3e a7 47 e7 bd fa b4 92 bd 0d fb c4 bd
       0.16610022 -0.112929635 -0.07163425 -0.09618197
0002d0 0c 0f 41 be 35 53 05 be 57 d9 0b 3e 90 76 62 3e
       -0.18853396 -0.13020022 0.13657127 0.2211554
0002e0 bf a3 ff 3d 86 a8 5b 3d 56 5f 68 bd 3c 23 3d be
       0.12482404 0.053627513 -0.056731544 -0.18470472
0002f0 3f 65 00 bd 13 49 1b 3b 45 30 20 bc ab 64 b1 bc
       -0.031346556 0.0023694679 -0.009777133 -0.021654448
000300 39 e9 c4 bd 39 7b 90 bc d9 3a d9 bb 0f 20 c7 bd
       -0.09614796 -0.017636882 -0.0066293296 -0.097229116
000310 80 54 48 be 8c c4 fa bd 90 80 62 3e 90 1d e1 bd
       -0.19563484 -0.122445196 0.22119355 -0.10991967
000320 da 75 d7 bd 89 8f 57 be 36 e0 63 bd 81 94 0b 3e
       -0.10520525 -0.21050848 -0.055633746 0.13630868
000330 0e 53 70 be 2c c1 32 3e 00 db 28 be 64 b2 09 3e
       -0.23469183 0.17456502 -0.16489792 0.13446957
000340 a8 c1 2d bd 33 7d 17 3e 73 03 b3 3d 52 de 95 bd
       -0.042421013 0.14793853 0.08740892 -0.07317795
000350 98 89 e1 3d 4b cf 5e bc ff 0b 76 3e 4b 05 3a 3e
       0.11012572 -0.013599227 0.24028014 0.18166082
000360 5f a1 3a be c3 66 01 be c6 f9 24 be ec 62 c3 3c
       -0.1822562 -0.12636857 -0.16110906 0.02385088
000370 65 68 12 3d 96 8b 64 bd 12 a3 bf 3d d2 47 e5 bd
       0.03574409 -0.055797182 0.09357275 -0.11195339
000380 db 46 0b 3d 26 ed 83 be 08 64 62 3e a2 cc 7c 3e
       0.03400312 -0.25766867 0.22108471 0.24687436
000390 ef 1e 34 3e a6 b0 01 be 09 09 10 3e 83 f7 fe 3d
       0.17589925 -0.12665042 0.14065947 0.12449553
0003a0 4f b8 69 bd 66 57 35 be 23 2a 03 bd 60 88 38 bc
       -0.057060536 -0.17709121 -0.032022607 -0.011262983
0003b0 7d 75 87 bd 00 78 8b 3c 79 00 6e 3d 4e 40 19 be
       -0.06614206 0.017024994 0.05810592 -0.14965937
0003c0 9f 5f c7 be bf 18 6a 3e 77 e4 92 be 0c 3f 08 be
       -0.3894014 0.22861002 -0.2868993 -0.133053
0003d0 e8 5a 80 bd 85 89 2e bc 05 33 e7 bd c3 20 cf be
       -0.06267339 -0.010652904 -0.11289028 -0.40454683
0003e0 d1 79 68 be 00 0a 91 bd 86 9f 91 be c3 db 05 be
       -0.2270272 -0.070819855 -0.2844202 -0.13072114
0003f0 91 2a 11 be 2a d1 ab bd 3a f4 82 3c a3 b1 af bd
       -0.14176394 -0.08389504 0.015985597 -0.085788034

net.3.bias f4 [20]
000000 27 74 2f 3e 94 5e 34 3d ea 0b e0 be 86 7a bd be
       0.17134152 0.04403551 -0.4375909 -0.3700754
000010 de 17 0f 3e 5a cb 16 be 96 94 ef 3d a9 26 5f be
       0.13973948 -0.1472601 0.116982624 -0.21792091
000020 b9 ad 3b be 34 bb 9c 3e 99 31 c6 bd 4a ab ce bc
       -0.18327989 0.30611575 -0.09677429 -0.025228161
000030 86 72 cb be 4e 5e 35 3d 14 cd 83 3d f8 fe 54 3e
       -0.39735812 0.04427939 0.064356 0.20800388
000040 01 32 dc bd 48 b9 e5 3d 10 58 81 3e b0 dd 8a 3e
       -0.10751725 0.1121698 0.252625 0.2712226

net.6.weight f4 [15, 20]
000000 6e 63 e2 3d 12 26 f7 3d fa 3f 1a be 6f 8f a5 be
       0.11054121 0.12067808 -0.15063468 -0.32335994
000010 a8 79 87 3d d7 1b 74 be 67 ea 35 3d d1 ff a4 be
       0.06615001 -0.23838745 0.044412997 -0.32226422
000020 b9 da 40 3d d4 0a 5d 3e cc 32 b6 bd 88 e0 58 be
       0.04708359 0.21586162 -0.088964075 -0.21179402
000030 60 25 85 be 21 30 d3 3d f5 bd 1f bc 5d ac b7 3d
       -0.26005077 0.10311914 -0.009749879 0.089684226
000040 c8 4c 38 3e 77 cd 82 3e 31 a2 85 3c f2 73 c7 3d
       0.1799804 0.25547382 0.01631269 0.09738912
000050 2a f5 1b 3d 37 a5 41 bd 1c 97 3a be 56 f1 9d be
       0.038075604 -0.0472767 -0.18221706 -0.30848187
000060 77 64 63 3e 99 74 3e be bf 3e 56 3d ee 14 00 bd
       0.22206293 -0.18599166 0.052305933 -0.03126996
000070 51 4b 4a be cd 0b 96 3d 50 35 25 be 73 95 a3 3b
       -0.19755293 0.073264696 -0.16133618 0.004992181
000080 57 2a a5 be ed 51 2d be 3e f3 33 3e 38 d3 10 be
       -0.32258865 -0.16925783 0.17573258 -0.14143074
000090 83 d1 d5 3d 5a 75 39 be f4 3d 12 3e c3 31 e5 3d
       0.10440352 -0.18111172 0.14281446 0.11191132
0000a0 df 2b 4c bd 45 d2 e4 3c 1a 22 ec bd 24 b0 5e be
       -0.049846526 0.027932296 -0.11529942 -0.2174688
0000b0 f1 de ff bd 0f 51 ec bd 34 d0 52 3e 3a f1 9c bd
       -0.124936946 -0.11538898 0.20587236 -0.07663198
0000c0 82 c2 c4 bd b7 b1 2c 3e 88 f9 32 bd f3 cf 93 3c
       -0.09607412 0.16864668 -0.043695003 0.018043494
0000d0 fd 15 23 be 21 1f 6e be c7 f0 69 bd 83 5d 81 3e
       -0.15926357 -0.23254062 -0.05711439 0.25266656
0000e0 cf 92 85 be e6 6d 01 3e 26 0d cb bd 7b 75 1f 3e
       -0.2608857 0.12639579 -0.09914617 0.15572159
0000f0 08 b4 06 3e 48 2b 95 3d ec 21 d1 be 33 dc 11 be
       0.13154614 0.07283646 -0.40846193 -0.14244156
000100 bc 53 87 3e fc e2 c3 be 45 80 2d 3e 2c 37 64 be
       0.26431072 -0.38259113 0.16943462 -0.22286671
000110 9f 91 80 be 8f 13 6a bd da e4 cb bd 1d 89 1d be
       -0.251111 -0.05714756 -0.09955759 -0.15384336
000120 03 6d f0 be df f4 74 bd 29 27 18 bc e3 98 ad 3d
       -0.4695817 -0.05980384 -0.00928668 0.084764265
000130 3d 50 c7 3d ea b7 cb 3d 96 df 84 3e 8b 78 f2 bd
       0.09732101 0.09947188 0.25951833 -0.11839398
000140 c1 84 32 3e 77 f4 e7 bd c4 06 22 be 28 58 49 3d
       0.17433454 -0.11325925 -0.15822893 0.049156338
000150 44 bb fe 3c 5e 70 96 be 3f 2e 0e 3d 83 ff 77 3d
       0.031095155 -0.29382604 0.034712072 0.06054641
000160 87 95 bb 3c 6c 50 8c 3d 34 a2 f7 bd 71 7f df 3c
       0.022898449 0.06851277 -0.12091485 0.027282448
000170 ad 92 30 be b0 32 e5 3d bd 1a 03 3e fa 4b 62 bc
       -0.17243452 0.111913085 0.12803169 -0.01381206
000180 67 c8 75 3e cc a9 82 be c8 33 68 be ad e0 8c 3d
       0.24002229 -0.2552017 -0.22676003 0.06878791
000190 99 d7 48 3d a0 65 54 3e 1b ac ca be 07 c6 a5 be
       0.049033735 0.20741892 -0.3958443 -0.32377645
0001a0 29 dc d3 3d ae 84 9c 3d 0f 0a f3 bd ad 17 31 bc
       0.103447266 0.07642494 -0.11867153 -0.010808867
0001b0 8d ca 69 3c e2 db 41 3e dc 49 be bc 1a 50 13 3e
       0.014269483 0.18931535 -0.023228578 0.14386025
0001c0 73 dc d7 be 1e a1 29 3e 69 11 fb 3d c4 32 83 3c
       -0.42160377 0.16565368 0.1225918 0.016015418
0001d0 d2 bb cf bd a3 44 23 3e 4a 58 08 3e 3b 45 9c bc
       -0.10143246 0.15944152 0.1331493 -0.01907598
0001e0 9f 6f f4 3d 83 38 b9 bd 81 00 a1 3d c2 26 53 bd
       0.119353525 -0.09043982 0.07861424 -0.051550634
0001f0 4b b9 95 3d b6 a5 6a 3d ef e6 c0 3d ab 19 f7 bd
       0.073107325 0.05728694 0.09419047 -0.12065443
000200 ae f1 c9 3d 08 50 26 3d ac e5 9b 3d 8a 23 30 3e
       0.0986055 0.040603667 0.07612166 0.17201057
000210 56 5a 05 be c2 cd 64 3e a4 e4 2a 3e 8a 2c e5 bd
       -0.13022742 0.22344115 0.16688782 -0.11190136
000220 dc 84 b5 bd 29 17 7d 3c b6 59 26 bd 03 a4 37 bd
       -0.088632315 0.015447416 -0.0406129 -0.04483415
000230 ee 2c c6 bd 75 c4 fd bd 94 f2 00 3f af 7f 04 3f
       -0.096765384 -0.12390987 0.50370145 0.5175733
000240 02 5b 08 bf 39 d5 21 3f 5b 19 f6 be ff 35 b1 3e
       -0.53263867 0.63215977 -0.4806622 0.34611508
000250 7b c5 55 3e 73 27 b6 be 12 df b7 3e bc 54 7f be
       0.20876114 -0.35576972 0.35912377 -0.24934667
000260 6a a6 29 3f 71 aa eb be e0 10 e6 be ec 15 ac be
       0.6626955 -0.46028474 -0.4493475 -0.33610475
000270 13 61 c6 be bd fa 76 be ec 75 a7 be 53 40 e0 be
       -0.38745937 -0.24119087 -0.32707155 -0.43799075
000280 de 03 2b bd dd 11 43 3b d3 3d 4c bd e9 8c 27 be
       -0.041751735 0.0029765286 -0.049863648 -0.16362347
000290 28 12 20 3e 46 fb 50 be 09 9a ce bd 0e aa 0e be
       0.15631926 -0.20408353 -0.100879736 -0.13932058
0002a0 5b 55 fb bc e3 3d 1c 3d 65 90 9a 3d 48 a0 e6 bd
       -0.03068035 0.038144957 0.07547072 -0.1126104
0002b0 e4 b5 1c bd 30 8e 1a 3e e9 6b 78 3d 62 55 4d 3e
       -0.038259402 0.15093303 0.060649786 0.20052102
0002c0 66 00 c8 3d 76 87 82 3e f1 16 f5 3d fe 85 eb bc
       0.09765701 0.25493973 0.11967266 -0.028750416
0002d0 18 5f c7 be 6d 41 cf be 83 df ac 3e 11 c9 f9 3e
       -0.38939738 -0.40479603 0.33764276 0.48786214
0002e0 e3 cb 9e be 92 38 09 3f 42 0f 87 be 6f 6e f8 3e
       -0.31014928 0.53601944 -0.26378828 0.48521754
0002f0 95 be 60 3e 74 fd f1 be ac bf 33 3e 0e 5b eb be
       0.21947701 -0.47263682 0.17553586 -0.45967907
000300 8a e5 a4 3e 4e e3 ca be 7f a1 96 be 90 25 4a be
       0.32206374 -0.39626545 -0.29420087 -0.19740891
000310 5b 46 c5 bd 13 d0 d1 be 66 d6 0f bf d1 d1 ea be
       -0.0963256 -0.4097906 -0.5618652 -0.45863202
000320 3d d9 fd 3d 69 cf 3d bd 39 26 b7 be 08 51 07 be
       0.123949505 -0.04634038 -0.3577135 -0.13214505
000330 16 1c 88 3d e3 a3 5d be 1a 61 5f 3e ff 51 22 bd
       0.06645982 -0.21644549 0.21814385 -0.03962898
000340 22 d1 3a bc 78 97 d2 bd 35 21 95 be 90 a1 33 3e
       -0.0114024 -0.102827966 -0.29126897 0.175421
000350 4b 20 a8 be b1 7c df 3c 12 e6 28 3e 13 2d cb 3d
       -0.32837138 0.027281137 0.16494015 0.099207066
000360 40 f5 f3 bd 15 c1 5e 3e db fc 95 3e 42 5c e5 3d
       -0.11912012 0.21753342 0.29294476 0.111992374
000370 06 62 33 be 48 0c 56 be 0c 59 fe 3e 2f 40 16 3f
       -0.17517862 -0.20903122 0.49677312 0.58691686
000380 e6 05 b6 be 6d 23 09 3f ca 9e a1 be 75 ad 27 3e
       -0.35551375 0.5356968 -0.3156646 0.16374762
000390 ac 72 f8 3e 14 ec 88 be c6 c7 c9 3c 02 5f ef be
       0.48524988 -0.26742613 0.024631392 -0.46752173
0003a0 fa ec a7 3e 7a 93 d3 bd e1 5a 4e be aa 51 4e be
       0.32797986 -0.10330863 -0.20151855 -0.2014834
0003b0 84 f3 b9 bd c3 0c ba be 92 f7 f6 be 40 6c b4 be
       -0.0907965 -0.3633786 -0.48235756 -0.35238838
0003c0 26 cb 11 be 09 34 58 3e 31 54 30 bd af 5a 42 3d
       -0.14237651 0.211136 -0.04304904 0.047449764
0003d0 a7 e1 78 3d 0a 3e a9 3d 5f 3a 2b 3e 4a d3 64 be
       0.060762074 0.08263786 0.16721486 -0.22346225
0003e0 ea 2d 21 bd 58 99 7a bd 4f dd ec bc b6 36 1a 3e
       -0.039350428 -0.061181396 -0.028914122 0.15059933
0003f0 d4 2c 8f be 9c 9c 2c 3e 8c f8 ab bd e1 a7 29 be
       -0.2796389 0.16856617 -0.08397016 -0.16567947

net.6.bias f4 [15]
000000 a3 9a 0e 3e f1 73 de 3e c8 60 b2 3e 46 f7 5a 3e
       0.13926177 0.4344783 0.34839463 0.2138339
000010 72 48 89 3e 85 74 81 3e cd 05 b1 3e 41 f7 44 bf
       0.26813084 0.2528421 0.34574738 -0.7693978
000020 68 e6 bf 3e 54 46 41 bf a1 ad d5 3e 83 07 4c bf
       0.37480474 -0.7549794 0.4173403 -0.7969896
000030 ea 5e da 3e bc 66 b6 3e b8 99 a1 be
       0.4265054 0.35625255 -0.3156259

net.9.weight f4 [10, 15]
000000 54 08 b0 bd 3c 9d c1 3d f9 ce 67 3e 7e 81 aa 3d
       -0.085953385 0.09453818 0.22637548 0.0832548
000010 78 cc 57 3e 4c 98 86 3e c8 50 78 3e f1 cb 11 bf
       0.21074092 0.26288068 0.24249566 -0.56951815
000020 07 25 b1 3e 73 40 d9 be 9e 29 18 3e 3d a1 32 bf
       0.34598562 -0.42431983 0.14859626 -0.6977728
000030 f2 a4 86 3e b7 27 67 3e f3 c0 4a be a2 2b c1 3d
       0.26297718 0.22573744 -0.19800167 0.094321504
000040 61 1a 6d bd ff 0d 2d be 53 c7 8b 3e 33 9c df bc
       -0.057886485 -0.1689987 0.2730051 -0.027296161
000050 46 e8 2d be 87 66 97 bd cf dd b0 be 02 7d a8 be
       -0.16983137 -0.073926024 -0.34544227 -0.32907873
000060 11 53 ba be 67 46 07 be b4 1f b8 be 49 6c 3f 3d
       -0.363915 -0.1321045 -0.35961688 0.04673413
000070 b6 ec 48 bd 60 aa 5c be 97 47 c9 bd 2a 1d 0f 3c
       -0.04905387 -0.21549368 -0.09828108 0.008734981
000080 0b a2 97 3d 82 21 04 be b1 8f ac be 9c 06 15 be
       0.07403954 -0.12903407 -0.33703378 -0.14553303
000090 f5 2b a7 be 8e 79 54 3f a9 97 54 be 66 13 05 3f
       -0.32650724 0.8299798 -0.20760979 0.51982725
0000a0 1f 15 51 bd 6c d8 f5 3e 33 3e a6 be c7 0e 74 3d
       -0.051045533 0.4801668 -0.3246933 0.059584405
0000b0 aa c7 ad 3e dc 13 30 3c c8 ee 29 bb 48 5a a8 bc
       0.33941394 0.010746922 -0.0025929678 -0.020550862
0000c0 46 d1 e6 3d 87 06 8a bd 98 cd 01 bd b2 65 77 be
       0.112703845 -0.06739526 -0.03169021 -0.24159887
0000d0 f1 28 ed 3e 89 b6 09 bd 4f 0b 80 3d 66 a0 23 be
       0.46320298 -0.033621345 0.06252157 -0.15979156
0000e0 05 9b 32 3e fc 9e c4 bd e3 6e 4e 3e 77 7c d5 3e
       0.17441948 -0.09600636 0.20159487 0.41696522
0000f0 42 05 35 3e c7 0d 6a 3e cd 59 df 3d 30 1d 1c 3e
       0.17677787 0.22856818 0.109058 0.15245509
000100 bd 9e d9 3d 8b 7e d9 3d a7 1c 0e 3e 65 ea 30 bf
       0.1062598 0.10619839 0.13878118 -0.6910766
000110 63 bd 31 3e 2e 25 15 bf 67 4f 87 3d 99 cd d1 be
       0.17357402 -0.58259857 0.06606942 -0.4097717
000120 5c 85 ae 3e 66 ed 6e 3e 70 d9 b9 be 57 55 99 3e
       0.3408612 0.23332748 -0.36298704 0.29947922
000130 d2 86 fb 3d 09 5a 6c 3d ae 46 2e 3e d8 09 c5 3e
       0.12281574 0.05770305 0.1701915 0.38484073
000140 57 9f 46 3e ee 2c 79 3e 89 9d b0 be b1 0a c1 3d
       0.19396721 0.24333546 -0.3449519 0.09425867
000150 45 41 ab be 0d 2d fa 3b 32 c6 ea be 34 96 e4 3d
       -0.33448234 0.007634765 -0.45854336 0.111614615
000160 59 33 1b bd 76 ac a9 be 71 50 82 3c c8 5e 92 3d
       -0.037890766 -0.3313939 0.015907498 0.07146984
000170 69 a0 5e be 5e ae 7e be a1 3e ea be f5 64 14 bd
       -0.21740879 -0.24871203 -0.45750907 -0.036229093
000180 30 5a a3 be ff a5 1e 3f ab cb b6 be 30 f1 2a 3f
       -0.31904745 0.6197204 -0.3570226 0.6677427
000190 f7 3e cf be d2 d5 89 3e b7 45 9a be f1 d3 97 3d
       -0.40477726 0.26920944 -0.30131313 0.074134715
0001a0 c5 f1 b1 3e 9a 1a 61 bd c4 a7 1b be 9f 27 3b be
       0.34754768 -0.05495701 -0.15200716 -0.18276833
0001b0 e9 2f c7 be c4 30 86 3d fe 66 d4 3d fb dd 5c 3a
       -0.3890374 0.0655227 0.10371207 0.00084254117
0001c0 01 af 97 bb b3 e1 dc bd 5e 43 25 3e 60 5b 6f be
       -0.0046290164 -0.10785236 0.1613898 -0.233747
0001d0 dd 52 b0 3e 76 30 09 bd ec 44 c1 3d 7b 3e fb 3d
       0.3443822 -0.03349348 0.09436974 0.122677766
0001e0 93 0f 57 3e 7d 88 d9 3d 34 44 88 3e 8d 19 f8 bd
       0.21002035 0.10621736 0.26614535 -0.121142484
0001f0 b6 c9 cd 3e 76 e0 ae 3e 9b 78 93 3d a5 90 9a be
       0.40192956 0.34155625 0.07200738 -0.3018848
000200 26 a9 d4 3e ee 46 d8 be 81 10 25 3e df b8 f7 be
       0.415353 -0.42241615 0.16119577 -0.48383233
000210 90 3b b2 3c 99 2d f9 3d 59 60 1e be cd ff 56 3c
       0.021756917 0.121669 -0.15466441 0.013122511
000220 19 e8 17 3e 6a 41 a1 3e 6a 16 31 3e 16 5d 27 3e
       0.14834632 0.3149522 0.17293707 0.16344103
000230 29 e8 e6 3d 74 34 13 3e d8 ec 1b bf d3 ba 6c 3e
       0.1127475 0.14375478 -0.6090827 0.23118143
000240 6a b0 11 bf 48 21 91 3e 88 48 a0 be 3d 85 c8 3d
       -0.5690981 0.28345704 -0.31305337 0.09791038
000250 4a 47 63 3e 53 08 8f be
       0.22195163 -0.27936038

net.9.bias f4 [10]
000000 36 71 28 3f 66 55 ed 3e b9 62 85 bf 82 be 94 be
       0.65797746 0.46354216 -1.0420753 -0.29051596
000010 48 40 24 3f b1 84 0c 3f d7 3d 42 bf e6 8d 00 be
       0.64160585 0.5488997 -0.7587561 -0.1255413
000020 89 73 1a 3f 93 20 49 3f
       0.6033254 0.7856533

net.11.weight f4 [5, 10]
000000 8c 8a ce 3d 98 fd ef bc 27 6c 57 be 05 11 d8 bd
       0.100850195 -0.029295728 -0.2103735 -0.10550121
000010 6e 97 04 3d fd 95 52 bd 90 20 ed 3d 94 cf f6 be
       0.032370977 -0.05141257 0.115784764 -0.48205245
000020 16 ca 13 ba 36 5b 1b be 5e c1 a4 be 29 92 1f be
       -0.0005637718 -0.15171513 -0.32178777 -0.155831
000030 bd 1e bf 3c 14 a4 a9 bd 9c c2 95 3d e4 a8 2b be
       0.023330087 -0.082832485 0.073125094 -0.16763645
000040 da ad a5 3d 04 e7 b1 be 28 73 56 3e 92 30 c5 bd
       0.080898 -0.34746563 0.20942366 -0.09628405
000050 2c 39 03 be 8f eb 54 bf 0a e9 ca 3e 9a eb dd 3c
       -0.12814778 -0.83171934 0.3963092 0.027089883
000060 f8 df 1c be c4 f6 eb 3a 02 8f b5 3e 3b e7 c3 bc
       -0.15319812 0.0018002619 0.3546067 -0.02391397
000070 11 8c b0 be 2c 2b 88 be 3f bc 8a be 7e db 4b bf
       -0.34481862 -0.26595438 -0.27096745 -0.79631793
000080 c3 23 41 3f 12 fd a8 3e 64 94 e8 be 99 7e 92 be
       0.75445193 0.33005577 -0.45425713 -0.2861221
000090 96 06 a9 3e da 58 c5 3d cd 7a 88 be 0c a9 d3 be
       0.33012837 0.09636088 -0.2665619 -0.4133991
0000a0 51 26 cf be 98 f0 2b bf d4 7e dd 3d c3 a2 20 bd
       -0.4045892 -0.6716399 0.10815206 -0.03921772
0000b0 18 32 15 bf 42 34 e1 be 63 dd 07 3f a6 c2 01 3d
       -0.5827956 -0.43985182 0.53072184 0.03167977
0000c0 a9 7a 81 be f0 0b b2 be
       -0.25288895 -0.34774733

net.11.bias f4 [5]
000000 d6 a9 29 3e 9b 17 fc be 03 fe f2 be 48 fe c2 be
       0.16568694 -0.4923676 -0.4745942 -0.38084626
000010 bc d3 79 bf
       -0.97588706
