docs/model.pkl (torch_old, 13055 bytes, 10 tensors)

net.0.weight f4 [20, 95]
000000 a2 75 62 bd 25 ff d0 3d 12 a2 99 3d 0e 50 9a bc
       -0.055287965 0.10204915 0.075016156 -0.018837001
000010 0d 57 f8 bc df 27 0a 3e 92 35 26 bb 08 54 5d bd
       -0.030314947 0.13491772 -0.002536152 -0.054035217
000020 dd 85 5e bd 22 7d 26 3d dd a6 ae 3a 29 f6 fe 3d
       -0.05432688 0.04064668 0.0013324876 0.12449295
000030 ab c9 5c bc 6d 74 05 3d 61 13 2f 3c 93 bf 16 3e
       -0.013475816 0.032581735 0.010685773 0.14721517
000040 8d 56 14 3e f7 4b dc 3c 97 50 d1 3c b4 76 02 3d
       0.14486142 0.026891692 0.025551124 0.031851485
000050 fb 1a 30 bd 07 c1 74 bc 35 66 a7 3d 37 26 e2 3d
       -0.04299448 -0.014938599 0.08173791 0.11042445
000060 7a 9c c7 3b f1 f0 01 3e fd a7 b2 3c 9a ec 21 3d
       0.0060916515 0.12689568 0.021808619 0.03953228
000070 4c 69 0c 3e fd 2f 6a 3d 77 00 ab 3d 25 99 1c bd
       0.13712043 0.05717467 0.08349698 -0.038231988
000080 de d6 8b 3d 7d 39 98 3d 0d 6d 10 bc 5c 00 7e 3c
       0.06828092 0.0743284 -0.008815062 0.015503015
000090 13 35 31 bd fb 1a 13 3e 80 2d a1 3d b8 25 89 3d
       -0.043263506 0.14365761 0.078700066 0.066966474
0000a0 5e ed a5 3d 35 2b 79 3c 36 b0 a7 3d e0 a3 92 bc
       0.08101915 0.015208055 0.081879064 -0.017900407
0000b0 04 3c 0b 3e 32 d0 e4 3c ec f7 d8 bc 40 de 99 3d
       0.13597113 0.027931307 -0.026485406 0.07513094
0000c0 06 57 55 3d 93 00 37 bd 43 de 00 3e b0 63 d5 3d
       0.052084945 -0.044678282 0.12584786 0.104194045
0000d0 6b 58 00 3e d4 3e ed 3b 6e 5d 92 3c 17 e2 27 3d
       0.12533729 0.0072401557 0.017866816 0.0409871
0000e0 2e b5 e8 3d c6 59 c3 bb 57 47 0d 3d d6 2b 45 3d
       0.11362682 -0.0059616296 0.034491863 0.04813751
0000f0 01 cf af 3d 86 65 ef bc 16 65 22 3e 59 21 11 3e
       0.08584405 -0.029223215 0.15858874 0.14172877
000100 6d be b8 3c 2c c4 4a bc a3 db ff 3d 3e b0 ec 3d
       0.02255174 -0.012375873 0.12493064 0.11557053
000110 7d 6e d3 3b 23 aa 20 bc 4b 9e 89 3d 8a c3 e6 bc
       0.00645238 -0.009806189 0.06719645 -0.028169412
000120 c0 0c 0d 3e 7f 79 72 bb 67 57 41 3d aa 9b 3c bc
       0.13774395 -0.0036998687 0.047202494 -0.011511723
000130 5c dc be 3d 51 c5 5e 3d 2f b8 87 3d 4a 69 23 bd
       0.09319374 0.054387394 0.06626927 -0.039895333
000140 15 2c 03 3e c7 51 b6 3d 44 20 1a bd 45 61 30 bd
       0.12809785 0.089023165 -0.037628427 -0.043061513
000150 72 d5 e1 3d 30 ba 3b bc a1 50 b0 3d 89 88 83 3c
       0.110270396 -0.011457965 0.08609129 0.016056316
000160 29 9d 11 3e 04 af 10 bd a2 f3 96 3d e0 44 86 3d
       0.14220108 -0.035323158 0.07370688 0.065561056
000170 a0 c6 54 3d f2 ee 48 3d 8c e4 80 bb ae 2f bc bc
       0.051947236 0.049056 -0.003933495 -0.022971954
000180 06 cd 0d bc 37 30 ca bd 07 cf 14 be 5b f5 f4 bd
       -0.008654838 -0.098724775 -0.145321 -0.1196086
000190 fc 0f 30 3d 28 3d 0b bd c7 9f 07 3d c7 f7 59 bd
       0.042983994 -0.03399387 0.03311136 -0.053214815
0001a0 94 53 40 3d 7a b1 03 3d 3e cf 90 bd 51 9c 1e 3d
       0.046954706 0.032151677 -0.07070778 0.038723294
0001b0 5d f5 ab bd f4 13 d7 bd 33 93 2f 3d 1f 30 f5 bd
       -0.08396409 -0.10501853 0.04286499 -0.11972069
0001c0 49 00 9f bd 9a bb 0f be 13 47 dd bd 7b 90 5a bd
       -0.07763726 -0.14036408 -0.10804572 -0.053360444
0001d0 96 00 0a 3c 71 03 2d bd 8a 99 03 be e2 34 cd 3c
       0.008422991 -0.04223961 -0.12851539 0.02504963
0001e0 ef 85 08 bd 37 a7 3e 3d 23 46 45 3d d4 24 c5 3c
       -0.033330854 0.046546187 0.04816259 0.024065413
0001f0 f0 81 a7 bc d5 c8 7e bd bd 70 93 bd e0 d3 33 bd
       -0.020447701 -0.062203247 -0.071992375 -0.04390323
000200 99 45 8e bc f2 65 7b 3d 0b 0e ee bd 3e 2b 95 3a
       -0.017367171 0.06137652 -0.11623772 0.0011380685
000210 25 4f a2 bd db ec a9 bc 22 79 fd bd 72 39 5b 3d
       -0.07925252 -0.020742824 -0.1237662 0.05352158
000220 8e 74 a1 3c f1 b8 92 bd 2c 56 d3 3b 5f 75 1e bd
       0.019708898 -0.07164181 0.0064494815 -0.038686153
000230 82 7b 05 bd 3c be da 3c 82 5c 00 be 6c d2 01 be
       -0.03258849 0.026702039 -0.12535289 -0.12677926
000240 c4 56 46 3d fe 64 2c 3d e5 80 6a bd 0f 58 4e 3c
       0.04842259 0.0420885 -0.05725183 0.012594237
000250 18 cf 87 3c fc 01 c3 3c 46 a4 02 be 1d 5a 91 bd
       0.016578242 0.023804657 -0.12757978 -0.07097266
000260 34 15 1c 3d f4 1a 1a 3d 16 30 71 3c 6a 22 ae bd
       0.03810616 0.03762336 0.014720937 -0.08502658
000270 ff da 84 bd 8e e6 ac bd 59 0d 79 bd 67 6c e7 3c
       -0.06487083 -0.08442412 -0.060803745 0.028249932
000280 bf a9 e3 bd 7d 30 0a be 49 ad 0f be 21 71 c5 bd
       -0.11116361 -0.1349506 -0.14030947 -0.09640718
000290 d0 ed 10 be 3b 2c 37 3c 66 ab 8a bd 48 6c 64 bd
       -0.14153218 0.011179979 -0.06770973 -0.055767328
0002a0 15 81 21 bd 9d 03 ed 3c 7c ca 41 3d 40 7f 91 bd
       -0.039429743 0.028932387 0.047312245 -0.07104349
0002b0 72 13 91 bd 8f a4 bb bb e3 e8 06 be 13 1a 80 bd
       -0.07083787 -0.005726404 -0.13174777 -0.06254973
0002c0 68 48 46 bc b7 77 77 3c b3 31 b8 bc a5 17 f9 bd
       -0.012102224 0.015104226 -0.022484636 -0.12162713
0002d0 86 13 ed 3c 44 8a ff bd ba f7 e3 3c d7 5d b2 bc
       0.028939974 -0.12477544 0.027828086 -0.021773262
0002e0 73 cc 4d bd b5 7b e4 bd 48 4e 4e 3d 72 03 ab bc
       -0.050243806 -0.11156408 0.050367624 -0.020875666
0002f0 d6 82 1d 3d f2 b5 ee bd 21 fc 33 3a 52 d2 7c 3d
       0.038454853 -0.11655797 0.0006865878 0.061724015
000300 09 12 a9 3d 69 18 42 3d d0 34 25 bd c2 dd 66 3d
       0.08255393 0.04738656 -0.04033357 0.05636383
000310 13 9f a5 3c 2c 6d 86 bc fc 00 5c 3d 92 0a e2 3d
       0.020217454 -0.01640948 0.053711876 0.110371724
000320 15 80 fd 3c 83 56 6f bd 8b 21 91 3d 5f fd 91 3d
       0.030944863 -0.058432113 0.07086476 0.07128405
000330 84 86 f7 3b 51 e5 a6 3d c4 a7 01 3d d6 09 b0 3d
       0.0075538773 0.081492074 0.031654134 0.08595626
000340 2b de ec bb 76 c4 2c bd e0 a4 a0 3c f0 c0 8b 3c
       -0.007228633 -0.042179547 0.019609869 0.017059773
000350 ac 8f 0c 3e 8c f2 bc 3d 31 71 a1 3a c1 99 72 3d
       0.13726681 0.0922595 0.0012317059 0.059228662
000360 49 ed 4d 3d 4b 3e c2 3d 65 5d 01 3e 75 dd f1 3d
       0.05027512 0.09484538 0.12633283 0.11809818
000370 9c 43 ee 3d 92 59 e0 3d f1 2c fd 3d d5 8e b2 bb
       0.11633989 0.10954584 0.123620875 -0.005449156
000380 2f 58 eb 3d b2 fe af 3d 3b 55 0e bd 23 e6 1d 3c
       0.11491429 0.08593501 -0.03474925 0.009637388
000390 55 bd 96 3d 9f f6 91 bc 1e aa 32 bd 5f be 43 bc
       0.07360331 -0.017817793 -0.043619268 -0.0119472435
0003a0 41 9a f0 3d 50 67 8f 3c a7 f4 20 bc 95 d0 e5 3d
       0.117481716 0.017505318 -0.009823955 0.112214245
0003b0 a8 2b ec 3c 3e 27 1c bc a3 4d 47 bd 7c 93 11 3e
       0.02882941 -0.00953084 -0.048658025 0.14216417
0003c0 de 8e 33 bd 7f 4f e1 3d e2 1b d1 3b e5 bf 67 bd
       -0.04383742 0.11001491 0.0063814977 -0.05657949
0003d0 3a 5c 3c bd a5 34 ac 3d 24 f6 2f 3d 6d 35 01 3e
       -0.04598639 0.08408479 0.042959347 0.12618037
0003e0 ee ff f6 3d 4b c1 c2 3d 63 96 b3 bc d9 16 ea 3c
       0.120605335 0.09509524 -0.021922296 0.028575348
0003f0 0e 8e d0 3d b0 e9 6a bd 2b a9 71 3d bd 05 07 3d
       0.10183345 -0.057351768 0.05899922 0.032964457

net.0.bias f4 [20]
000000 eb f5 50 39 57 09 a1 3c 5a 0b ca 3d ea 9c ef 3d
       0.00019928037 0.019657774 0.098654464 0.11699851
000010 47 05 a5 3d 61 f8 e1 bd 9a 80 be 3d d1 f1 03 3d
       0.08057647 -0.11033703 0.093018726 0.032213036
000020 f2 2d 0c be 72 c8 d7 3d 33 49 8d 3c 83 47 3c bd
       -0.13689402 0.10536279 0.017246818 -0.045966636
000030 d0 76 83 bd 65 28 fc bc 34 5a e3 3d 3a 60 92 bc
       -0.06419146 -0.03078098 0.11101189 -0.01786815
000040 b4 0e ab bd 41 9e cd bd 46 91 cb bd b5 2b e7 3d
       -0.08352414 -0.1003995 -0.09939818 0.11287633

net.3.weight f4 [20, 20]
000000 40 2c c3 3d 23 36 0a bd 05 2c 01 be 6f c4 15 bd
       0.095299244 -0.033743035 -0.12614448 -0.036564287
000010 e0 c1 f9 3d 44 d2 0e 3e 37 b2 25 be 0f 24 31 3d
       0.12195182 0.13947397 -0.16181265 0.04324728
000020 0a 64 38 be d2 a1 1a 3c e7 f5 39 3d bd ca cd 3d
       -0.18006912 0.009437995 0.045400526 0.10048435
000030 72 d0 4d be 4b ac 20 3d 20 16 eb 3d 72 de 18 bd
       -0.20099047 0.03922681 0.114788294 -0.037321515
000040 93 fc f7 3d ea be e3 3d d2 76 34 bd e0 bb 36 3e
       0.121087216 0.11120398 -0.04405863 0.17845106
000050 99 29 66 3e ad 35 53 be 02 10 38 3e b4 5d de bd
       0.22476806 -0.20625944 0.17974856 -0.10857716
000060 14 f9 45 3d 85 ba 5f be 58 fd 1f bd d6 ad 39 be
       0.048333243 -0.21848495 -0.039059967 -0.1813272
000070 e8 0d 68 be df e3 17 be de 0d 2f 3e 6c 9d f7 bd
       -0.22661555 -0.1483302 0.17095134 -0.12090573
000080 4f bc fe 3d 26 29 e4 3d f9 6f c6 3d a7 32 97 3c
       0.12438261 0.11140661 0.09689326 0.01845677
000090 c5 13 29 bd 58 c6 09 be d6 5a 5f be c0 88 62 3e
       -0.04127862 -0.13454568 -0.21811995 0.22122478
0000a0 67 fb 51 3e c9 39 23 be e5 c6 0f bd 1f 4b 47 3e
       0.20506059 -0.15940012 -0.03510179 0.1946225
0000b0 43 f5 53 3e 68 ff b8 bc ff b5 88 bd cb 9b 1a be
       0.20699029 -0.022582725 -0.06675338 -0.15098493
0000c0 c8 d7 fd 3c 18 34 b5 3c d4 0f 77 3e f4 58 36 bd
       0.030986682 0.022119567 0.24127132 -0.044518426
0000d0 b7 ed b0 bd 7a 09 75 be d4 54 01 be d7 7e 95 bd
       -0.086390905 -0.23929396 -0.12630016 -0.072995834
0000e0 6a a1 f4 3d ab 41 18 bd f4 1e 53 be 4c bb 76 3e
       0.1194485 -0.037172 -0.20617276 0.24094886
0000f0 bc ed 92 bd 1c eb 93 bd 55 70 5c be 24 fa 4e 3d
       -0.071742505 -0.07222578 -0.21527226 0.05053152
000100 e1 49 26 be 21 11 e9 bb 49 c0 63 3d 75 ca 14 3d
       -0.1623912 -0.0071126376 0.0556033 0.03632589
000110 cf 86 26 be a6 40 33 be 49 5f 03 3e e0 c6 e3 3d
       -0.16262363 -0.1750513 0.12829317 0.11121917
000120 08 fc 5a 3e 10 a7 df 3d 37 14 ef bd 96 0f 04 be
       0.21385205 0.109205365 -0.116737776 -0.1289657
000130 2c a9 9a 3d 5c c3 20 3b 07 46 69 3d 19 2c 61 be
       0.07551798 0.0024530506 0.05695155 -0.21989478
000140 2f 5e fd bd 9a f2 44 3e 79 89 13 3e 71 14 0a be
       -0.1237148 0.1923317 0.1440791 -0.1348436
000150 88 8b af 3c cc c9 1d 3e 5f 7c 0f be d3 77 32 3e
       0.021428838 0.1540901 -0.14012288 0.17428522
000160 e4 f2 e2 bc 03 11 a1 3d 15 0c 4e be e3 b9 ad bd
       -0.02770371 0.07864573 -0.20121796 -0.08482721
000170 85 d9 a7 3d f7 32 d3 bd 97 89 15 bd 73 57 19 3d
       0.081957854 -0.10312455 -0.03650817 0.037436914
000180 d4 c4 97 3d 26 0c 52 3e 2f c3 60 bd bf 1b 11 bc
       0.07410589 0.20512447 -0.05487364 -0.008856713
000190 ed 0f 17 3e 2c 10 f4 bd 36 87 c6 bd 82 af f5 bd
       0.14752169 -0.11917147 -0.09693758 -0.11996366
0001a0 05 ca ce 3c ab d1 59 3e 44 3e 1e 3e 4a b6 88 3d
       0.025242815 0.21271388 0.1545344 0.06675394
0001b0 46 1b 20 bd 62 e2 69 3c c2 45 2d be 9a 06 73 3e
       -0.03908851 0.014275165 -0.16921142 0.23732987
0001c0 58 eb 48 be 0f a2 31 3d e2 50 6f 3d 82 af 9c bd
       -0.19621027 0.04336744 0.058426745 -0.07650663
0001d0 e7 50 fb bd 63 0b 4d 3d b5 d3 40 3e 54 54 72 be
       -0.1227129 0.050059687 0.1883076 -0.23664981
0001e0 10 77 f7 bc d6 c4 0c be 22 04 0b 3e da b3 21 3e
       -0.03020814 -0.13746962 0.13575795 0.15791264
0001f0 a9 1a 01 be cf 75 bb 3d 02 ad ae bd cf b2 58 be
       -0.12607826 0.091533296 -0.08529092 -0.2116196
000200 69 dd fe bd 0f ce 5f be fb 26 b4 bd d8 89 db 3d
       -0.124445744 -0.21855949 -0.087964974 0.10719651
000210 98 3b 18 3e 82 50 f5 bd 98 79 81 be 39 ab 13 3e
       0.14866483 -0.11978246 -0.2528808 0.14420785
000220 14 6f 50 3d 9d 17 21 3e b0 47 09 be 14 8d c0 3d
       0.050887182 0.15731664 -0.13406253 0.094019085
000230 ff 88 94 bc bb 19 e4 bd bd b4 76 3e 41 1e 25 3e
       -0.018131731 -0.1113772 0.24092384 0.16124822
000240 fc 9c 68 3d 8a 62 9a bd b7 d9 31 3e d4 9e 86 ba
       0.056790337 -0.07538326 0.17368208 -0.0010270723
000250 46 48 d0 bd c4 90 21 3e 35 2b af bd 92 40 73 be
       -0.10170035 0.1577788 -0.08553163 -0.237551
000260 33 48 ce bd 73 cd 36 3e 56 7a c0 3d c0 2e 12 3e
       -0.10072365 0.1785181 0.09398334 0.14275646
000270 b4 5a 04 be bc fe 46 3e 88 9d 83 be 0c e0 de 3d
       -0.12925225 0.19433111 -0.25706124 0.10882577
000280 9d 83 12 bd 44 22 3a be 6c e8 0a be 5f 0b a3 bd
       -0.035770047 -0.18177134 -0.13565224 -0.07961153
000290 07 11 26 3e d8 ca fa 3c 20 6b d9 bd 0c d9 43 3e
       0.16217433 0.030614302 -0.106161356 0.19125766
0002a0 95 1e ad bd 30 8a 1e be f5 f4 f5 bd 81 f3 4a 3e
       -0.08453099 -0.15482402 -0.120096125 0.19819452
0002b0 de 59 62 be 9b 17 d6 bb 77 21 c2 3d db ba 72 3c
       -0.22104594 -0.0065335757 0.09479039 0.014815058
0002c0 26 a4 7b 3c cc 63 4c be c7 39 48 3e ba 6f b9 3d
       0.01535896 -0.19959944 0.1955329 0.09054513
0002d0 52 51 61 3e e3 a1 40 be 30 4d 32 3e ac 3e b5 bd
       0.22003677 -0.18811755 0.17412257 -0.08849844
0002e0 2e 04 25 3e bf 4a 0b 3d db 05 88 3d 04 a8 2c 3e
       0.16114876 0.03400683 0.06641742 0.16860968
0002f0 dc d9 3a 3d b6 36 55 3e af bc 43 3e e7 29 2a bd
       0.045617923 0.20821652 0.19114946 -0.041543867
000300 61 a6 00 be 24 10 66 be 43 24 eb 3d 46 13 9d 3c
       -0.12563469 -0.22467095 0.11481526 0.01917423
000310 8f 26 78 be 84 5b b0 bd dd 4a 64 be 2c d2 cf 3c
       -0.24233459 -0.08611205 -0.22294183 0.025368772
000320 6c 63 53 bd 2a f6 84 3d 0b 2a d6 3c ee ef 71 3e
       -0.051608488 0.064922646 0.026143095 0.23626682
000330 6f 49 50 3e 2c 17 01 be 27 d4 65 3d 42 7d 94 3d
       0.20340513 -0.12606496 0.056110527 0.072504535
000340 c2 d5 a3 bd 5b 46 34 bd 6d 09 00 be 17 f7 af 3d
       -0.079997554 -0.04401241 -0.12503596 0.085920505
000350 fc 66 52 be b9 43 34 be 05 a1 0e bc 86 1c 1b 3e
       -0.20547098 -0.17603959 -0.008705382 0.151476
000360 55 be 0d be 63 e6 ee bd 3e ae b2 bb d7 2f 4a 3e
       -0.13842137 -0.116650365 -0.0054529 0.19744812
000370 67 14 4d be 6d b6 f5 3c e2 9f 24 be 27 28 26 be
       -0.20027314 0.029994214 -0.16076615 -0.16226254
000380 d8 e4 0b 3e da 48 e0 bd b4 f7 ca bd a3 fa 10 3e
       0.13661516 -0.10951395 -0.09910527 0.1415811
000390 4a 22 15 3e 97 9f 29 bc fa fc 71 be 50 c7 08 3b
       0.14563861 -0.010352991 -0.23631659 0.0020870753
0003a0 8f 16 79 bd 34 b0 05 be 3e 08 f9 3c 57 7a c4 3d
       -0.06081253 -0.13055497 0.030399438 0.09593647
0003b0 e6 05 14 bd c8 77 57 bd 49 c9 d7 3c e8 92 f6 3d
       -0.036138438 -0.052604467 0.026341097 0.12039739
0003c0 fc 85 43 be 0b 26 6b 3e 25 05 39 be cc 2b d4 3d
       -0.1909408 0.22963731 -0.18068369 0.10359916
0003d0 b7 10 e9 bd 0d 4b 2c 3e e4 37 35 be 3e 75 ff 3d
       -0.11380141 0.16825505 -0.17697102 0.12473534
0003e0 5b de f1 bd c3 7b d8 3b 63 18 ec bd d5 06 39 bd
       -0.11809989 0.0066065504 -0.11528089 -0.04517253
0003f0 d7 02 25 be 03 9f 44 be 1a 54 1e 3d d2 e3 da bc
       -0.16114365 -0.19201283 0.038654424 -0.026719961

net.3.bias f4 [20]
000000 b5 d0 77 3e 1a 01 cf bc df d7 35 3d 3b 40 0a 3e
       0.24200709 -0.02526908 0.044395324 0.13501064
000010 c0 94 99 3d 12 d3 ad 3c 3f 79 c3 3d e8 86 6d 3e
       0.07499075 0.02121881 0.0954461 0.23195994
000020 90 b3 28 3d 60 9e 0a bd 48 d1 ea 3d 95 4f 0e 3c
       0.04118687 -0.033842444 0.114656985 0.008685966
000030 ef 79 8f 3b b1 85 14 3d ec e9 1c 3e a8 0d 0d be
       0.0043785493 0.03626031 0.15323609 -0.1377474
000040 63 61 7a be 61 91 59 3c 84 9f 4f 3e 28 62 4d bd
       -0.24451213 0.01327929 0.20275694 -0.050142437

net.6.weight f4 [15, 20]
000000 fd 4c eb 3b 40 1e d1 3c 08 0a b0 bb ee 24 fe 3d
       0.0071808086 0.02552712 -0.0053722896 0.124093875
000010 14 f6 a3 3d 74 be ad 3c 20 b8 8d bd 15 63 84 3d
       0.0800592 0.02120898 -0.06919885 0.06464211
000020 fc 6e 1b 3e ee fb 27 3d 3b a2 47 3e 30 2a 13 be
       0.15179056 0.041011743 0.1949548 -0.14371562
000030 c1 91 a1 bd b4 37 22 3e d5 86 6b 3e 6b 4b d6 bd
       -0.078891285 0.15841562 0.23000653 -0.104636036
000040 62 5a 39 bc d4 46 b4 bc b7 5c 31 3e 20 3c e7 bd
       -0.011313053 -0.02200643 0.17320524 -0.11290765
000050 02 d4 33 3e 30 94 31 3e 5f 75 0a 3e 19 af 57 be
       0.17561343 0.17341685 0.13521336 -0.21062888
000060 4e d9 1f 3e 3a 85 9a 3d 5b 99 3f be dd 11 0b 3e
       0.15610239 0.07544942 -0.18710844 0.13581033
000070 ac 47 2a 3e a5 9d 48 3e 04 84 ef 3d 9c 3f 2a be
       0.16628903 0.19591387 0.11695102 -0.16625828
000080 5a 26 a9 3d 45 05 51 3e fe 87 77 3e 00 57 5d bd
       0.08259268 0.20412166 0.2417297 -0.054038048
000090 5e d1 8f bd 35 0b a7 3c e2 f2 8e 3c 2b 52 fb bd
       -0.070223555 0.020391086 0.0174498 -0.12271532
0000a0 00 05 15 bd d6 90 38 3e 8e 7d 9b 3d c1 67 e0 3d
       -0.03638172 0.18024 0.07592307 0.109572895
0000b0 72 8f d1 bd 97 a2 d0 3d 4e 94 15 3e 3b 0c ea 3d
       -0.10232438 0.101872616 0.14607355 0.11428114
0000c0 3b f5 9e bd aa 4d 9a 3d 41 68 e2 3d de 1a db bd
       -0.07761618 0.075343445 0.11055041 -0.10698484
0000d0 26 2b 93 bc b0 85 52 3e 6c 63 63 3e 50 b4 08 3e
       -0.01796491 0.2055881 0.22205895 0.13350034
0000e0 19 ac 33 be e9 7f d5 3c d4 8d 1e 3b 27 c2 5e 3d
       -0.17546119 0.026061969 0.0024193423 0.054384377
0000f0 a6 52 f2 bc 57 31 c4 3d a2 df 36 be d1 62 96 3d
       -0.029580425 0.09579723 -0.17858747 0.073430665
000100 78 34 57 3d 21 74 3e be 74 b8 4e 3d e9 31 2e be
       0.052540272 -0.18598987 0.050468877 -0.17011227
000110 f1 16 6f bc 8e f6 84 3d 50 17 94 bd e6 c4 c5 3d
       -0.014592872 0.06492339 -0.07231009 0.09656696
000120 b0 be 2e be ad 15 83 bd bb a5 5b be c1 f9 77 3e
       -0.17064929 -0.06400619 -0.2144994 0.24216367
000130 72 a2 8b bd 95 66 26 be a9 6f 6a be 16 53 78 3d
       -0.06818093 -0.1625007 -0.22894157 0.060626112
000140 f0 d3 b4 ba 23 ea 89 3e 6f 60 99 3c 40 f9 34 be
       -0.0013796072 0.26936445 0.018722741 -0.17673206
000150 5e 1f 0f be 00 0f 36 be fd a0 42 3d f6 96 a6 3c
       -0.1397681 -0.1777916 0.04751681 0.020335656
000160 e4 36 e2 3d be 4b 62 3e ca 3d d5 3c 15 7e 41 be
       0.11045626 0.22099206 0.02603044 -0.18895753
000170 47 31 f2 bd 9a a6 2a 3e ed 38 6f 3e 6e 8c bd bd
       -0.11825805 0.16665116 0.23361559 -0.092553005
000180 e6 18 3e be da 4d 5a 3e 46 50 3b 3e 00 e0 c9 3d
       -0.18564186 0.2131876 0.1829234 0.09857178
000190 01 e9 e0 3c 4f a6 6e be 11 d0 96 3c a9 05 65 bd
       0.027454855 -0.23305629 0.01840976 -0.0559136
0001a0 d0 be bf 3d 65 0c dd bd 05 4b db 3d cb eb 1f 3d
       0.093625665 -0.1079338 0.10707668 0.03904323
0001b0 d4 9b 3a 3e 9a 3a 5c be 1d 9d 9d bb f4 63 c9 3d
       0.18223506 -0.2150673 -0.004809989 0.09833518
0001c0 9d b1 64 3e 66 b9 14 be 14 97 29 3e 4e 87 f5 bd
       0.22333379 -0.14523849 0.16561538 -0.11988698
0001d0 b2 7d c4 bd 30 ee 67 be 49 89 66 be f8 54 85 be
       -0.09594287 -0.22649455 -0.22513308 -0.2604139
0001e0 ba 2d 9a 3c 41 22 23 3e 7f d2 b6 bd e3 2f 06 3e
       0.018820632 0.15931036 -0.08926868 0.13104205
0001f0 ed d6 3a 3e 90 64 98 bc cb a2 34 bc e9 8d 10 be
       0.1824605 -0.01860264 -0.011025141 -0.14116634
000200 ca b6 01 be 55 e7 17 3e c9 46 c0 bd f5 02 44 3e
       -0.12667385 0.1483434 -0.09388501 0.19141753
000210 a1 0a b1 3c 93 84 ce 3d 5c 58 85 bd 19 eb fd 3d
       0.021611514 0.1008388 -0.06510994 0.12398357
000220 be 03 30 3e 39 14 06 3d 73 f1 18 3e 23 7a e7 bd
       0.17188928 0.03273413 0.14935856 -0.113025926
000230 c0 eb d5 bc af 66 14 3e 56 cc 08 3d 0d f0 02 be
       -0.02611339 0.14492296 0.033397995 -0.12786885
000240 4a ad 1b 3e f4 a8 84 3d cd d3 0f 3d 85 ec 71 be
       0.15202823 0.06477538 0.0351141 -0.23625381
000250 61 f9 59 be 5c e4 0b bc d8 bd 06 3c c9 3a 32 3e
       -0.21286537 -0.008538332 0.008223973 0.17405237
000260 28 33 79 bc 8d 37 76 be 54 c1 ac 3d 28 c6 00 3e
       -0.0152099505 -0.24044628 0.08435312 0.1257559
000270 89 cd 7d 3c d8 ce 58 be e8 05 86 be 1e 5a 2a be
       0.015490898 -0.21172655 -0.2617638 -0.1663594
000280 94 a9 07 3d 26 72 02 bd 1d db 22 be 1e c5 23 3e
       0.033120707 -0.03184714 -0.15903898 0.15993163
000290 64 59 17 3e f4 d8 23 3d f6 5b f2 3d f0 fb 4b bd
       0.14780194 0.040001824 0.118339464 -0.049800813
0002a0 30 6b d6 bd f6 0a 5b 3d ca fc 59 3d 04 00 79 bd
       -0.10469663 0.05347725 0.053219594 -0.06079103
0002b0 9f 19 0e be 4a 46 56 3e 0c e8 42 3d fa 75 20 be
       -0.13876961 0.2092525 0.04758458 -0.15670004
0002c0 bc e3 be bd 82 b2 07 be ef 9f 30 3e 6f 20 9e bd
       -0.09320781 -0.13251689 0.1724851 -0.0772103
0002d0 ab 12 56 3e b2 18 a9 3d 3b 81 ac bd c0 1b 1c 3e
       0.20905559 0.082566634 -0.08423086 0.15244961
0002e0 e8 2f d0 3d 70 31 39 3e 45 f8 ec bd 7e 91 ad bd
       0.101653874 0.18085265 -0.11570791 -0.08475016
0002f0 11 61 52 3b 8f 78 b3 bd a7 b9 dd 3d ca 90 e0 bd
       0.0032101313 -0.08763229 0.10826426 -0.10965116
000300 52 0e a5 bc 2b 3a 95 3d b3 3b 90 3d 44 dc 25 bc
       -0.02014843 0.07286485 0.07042637 -0.010123316
000310 a9 19 4d be 35 71 6f 3c 1a 89 fd bd a0 00 2e be
       -0.2002932 0.014614393 -0.12379666 -0.16992426
000320 81 66 98 bb 3d 0e 67 3d 06 d5 e1 3c 0e 02 2d be
       -0.0046508913 0.056410063 0.027567398 -0.16895315
000330 8a b4 b0 3b a1 21 d6 3d 62 bc d3 bd 48 04 10 3c
       0.0053926157 0.10455633 -0.103386655 0.008790083
000340 b8 8d 58 3e 71 a4 41 3e 0a 75 9d 3d 94 bf c1 bd
       0.21147811 0.18910386 0.07688339 -0.09460369
000350 f0 2d 88 bd 8b 52 00 3e 4a e7 12 3e 7e 72 f5 3b
       -0.06649387 0.12531488 0.14346042 0.007490455
000360 81 c1 15 3d 06 87 50 be 1a ee 12 3e 10 c3 b8 bb
       0.036561493 -0.20364007 0.14348641 -0.0056384876
000370 43 12 10 bb 06 b1 8f 3b bf f4 8f 3d 02 ef 30 be
       -0.002198354 0.0043851165 0.070291035 -0.17278674
000380 e6 55 24 3e 45 fb 4e be 3f 93 d3 3d 25 1f 0a 3e
       0.16048393 -0.20213039 0.10330819 0.13488443
000390 e5 dc bf bd 49 f6 5a 3e d6 fa 1d bd fb d6 0f 3c
       -0.09368304 0.21383013 -0.038569294 0.008779283
0003a0 b0 28 68 3d 3d c1 5a 3e ff 68 fe 3c cd eb 9c 3c
       0.056679428 0.21362777 0.031055925 0.019155407
0003b0 c9 4d bd 3d c8 0f 3f be e4 d6 e9 bd fd 17 4d 3d
       0.09243352 -0.18658364 -0.1141794 0.050071705
0003c0 40 1a e8 3d 2d c0 7b 3d ab 67 e1 3c 40 72 d4 bd
       0.11333132 0.06146257 0.027515253 -0.10373354
0003d0 88 6e 54 be 9e 1b 66 be f8 a3 a0 3d 4a f3 8a bc
       -0.2074529 -0.22471473 0.078437746 -0.016961712
0003e0 28 f2 51 3c 66 d1 18 bd 40 dc 61 3e 78 b3 b6 3d
       0.012814082 -0.037309073 0.22056675 0.0892095
0003f0 64 13 a6 bd 83 d4 3e 3e a7 29 2f 3e 13 d7 22 bd
       -0.08109167 0.18635754 0.17105733 -0.039755892

net.6.bias f4 [15]
000000 42 36 62 3e 94 2a 83 3e 37 3c 03 3e 21 2a 8b 3b
       0.2209101 0.25618422 0.12815939 0.0042469655
000010 30 b0 a2 3e 80 67 0e bd 52 1d e7 3c 78 6e 67 3d
       0.31775045 -0.034766674 0.028212223 0.056501836
000020 fd 70 83 bd ac 59 44 3e 77 09 18 3e da 8e 0e be
       -0.06418035 0.19174832 0.1484736 -0.13921681
000030 d2 40 8d 3d 92 7d ae 3c 1c 80 9d bd
       0.06897129 0.021300111 -0.076904505

net.9.weight f4 [10, 15]
000000 1f 6d 0c be 3a 8a 95 3e c1 45 af 3d bd 82 13 be
       -0.13713501 0.2920702 0.085582264 -0.14405341
000010 73 b9 8a 3e b2 bd 95 be 74 a2 28 3e 78 e0 00 bc
       0.27094612 -0.2924629 0.16468221 -0.0078660175
000020 fc c0 34 3e 5b 37 bd bd 59 50 5c 3d 7d 81 29 be
       0.17651743 -0.09239074 0.053787563 -0.16553302
000030 a3 a3 29 3e 67 b0 1b be 36 d8 7d be c2 bf 51 be
       0.16566329 -0.15204011 -0.24789509 -0.20483306
000040 2e 6b fe 3c 10 15 4d 3e 81 7b 0b 3e c3 0d 40 be
       0.031056967 0.20027566 0.13621332 -0.1875525
000050 b3 93 5f 3e 21 99 48 3d 20 b9 9d 3d 9a e6 2d 3e
       0.21833687 0.04897416 0.077013254 0.16982499
000060 72 e1 68 bd 44 f6 1d 3e 96 8c 73 be c8 96 c7 3d
       -0.056855626 0.15425974 -0.23784098 0.09745556
000070 44 93 95 3d e0 6a bc bd 4d cf 04 be 8c 01 48 3e
       0.07303479 -0.09200072 -0.12969704 0.1953184
000080 b1 0d 81 3e 83 89 20 be 4f f6 55 bd 2a 11 db bd
       0.25205758 -0.15677457 -0.05223685 -0.10696633
000090 fa eb ec bd 6f 11 12 3e c5 de 77 be e4 d3 aa 3d
       -0.115684465 0.14264463 -0.24206074 0.08341196
0000a0 2c 03 0e 3e f0 16 25 be 6d dd b5 bd 24 d9 9e be
       0.13868397 -0.16122031 -0.08880124 -0.3102504
0000b0 57 5d 30 bd e2 80 62 be 22 a1 61 3d 94 31 5e 3e
       -0.043057766 -0.22119477 0.05508531 0.216986
0000c0 a2 bd 65 be 5a 48 be 3c 2f 01 25 3e 07 8f b2 bc
       -0.2243562 0.02322786 0.16113733 -0.021796716
0000d0 bb 08 9d 3d ef c6 b7 bd 5c 86 2e 3e 8c f0 1f be
       0.07667681 -0.089734904 0.17043442 -0.15619105
0000e0 d7 76 2e be c0 81 4f 3e 0e ff 12 be f5 99 33 3d
       -0.17037521 0.2026434 -0.14355108 0.043847997
0000f0 bc 0f 3c 3e 9b 46 81 be 87 2a 23 be 40 5f 94 bd
       0.18365377 -0.2524918 -0.15934192 -0.0724473
000100 dd bf dc bd 8d f4 c4 3d e7 f2 18 3e f9 5f c7 3c
       -0.107787825 0.09616957 0.1493641 0.024337756
000110 c1 34 95 3d f3 3e 18 3e 8d f9 6f be 50 d1 0d 3e
       0.07285453 0.14867763 -0.2343504 0.13849378
000120 64 f9 81 be 28 20 3b be a5 73 83 bd 47 66 4e 3e
       -0.25385582 -0.18273985 -0.06418542 0.20156203
000130 a1 17 4b bd 4e 18 27 3e 6a 41 58 3e ed f3 d5 bd
       -0.04958308 0.16317865 0.21118703 -0.10446916
000140 39 ac 5b 3e 8e a1 92 be 25 7f e1 3d a4 55 89 bd
       0.21452416 -0.2863888 0.11010579 -0.06705788
000150 d6 ad 26 be b8 45 2b 3e b7 e4 81 3d 45 19 8d be
       -0.1627725 0.16725814 0.06342452 -0.27558342
000160 0d d6 17 be a0 79 d7 3c 30 87 9b 3e b9 ec 1a be
       -0.14827748 0.026303113 0.30376577 -0.15129365
000170 0c f3 e3 bd 78 de 02 be cd 5f 8f 3e 85 a2 c7 3d
       -0.11130342 -0.12780178 0.28002778 0.09747795
000180 4b b3 44 be 96 81 41 3e 78 5a 0c be 0f db 4e 3d
       -0.1920902 0.1889709 -0.13706386 0.05050188
000190 01 29 02 be cf 15 1e be 0d fa 5e 3e 15 94 14 3e
       -0.12710954 -0.15438007 0.21775074 0.14509614
0001a0 42 c5 64 be de 7b 4d be 68 bf 9c be 02 88 9a 3d
       -0.22340873 -0.20066783 -0.3061478 0.07545473
0001b0 c5 b6 80 bd e3 00 48 3d 68 4e d6 3b cf c3 f2 3c
       -0.062848605 0.04882897 0.0065401085 0.029634384
0001c0 8f 3e 1d 3d 62 28 b2 3d e5 60 5a 3e 64 05 4e 3c
       0.03838974 0.08699109 0.21326025 0.012574527
0001d0 b3 9d 88 be 89 ef 8c bd 81 e6 0e be a0 39 26 3e
       -0.26682815 -0.06881625 -0.13955118 0.1623292
0001e0 50 04 17 3e 4a 2d a5 3d 8d 37 6f 3e c3 bc 8f 3d
       0.14747739 0.08065279 0.23361035 0.07018425
0001f0 eb aa 9b 3d d2 32 92 be e6 2a d1 bd 8a 6f 0e be
       0.076009594 -0.28554398 -0.1021326 -0.13909736
000200 9b 60 cf 3d 08 3d 01 3e 36 6e 10 3e 93 d6 8e 3e
       0.10125848 0.12620938 0.14104542 0.27898082
000210 b9 d2 a3 3d 13 fa 0d 3e b8 87 3e 3e 16 ef 45 be
       0.079991765 0.13864927 0.1860646 -0.19329485
000220 88 d3 eb 3d 5f d6 94 be 32 e9 56 3e 8b d6 89 be
       0.11514956 -0.29069802 0.20987394 -0.26921496
000230 3b 21 be bd 51 7c 87 bd 46 f0 8c 3e 69 5f 92 be
       -0.09283682 -0.06615508 0.27527064 -0.28588417
000240 d9 72 66 3e 7b fc 28 be 98 0a 29 3e 3b 88 8e be
       0.22504748 -0.16502564 0.16507947 -0.2783831
000250 6a fc 41 be 7e 21 81 3d
       -0.18943945 0.06305216

net.9.bias f4 [10]
000000 65 19 d6 3d 5f 50 4a be 4e b9 c2 3e ec 55 89 bd
       0.10454062 -0.19757222 0.38032 -0.067058414
000010 36 54 25 be ab 8d 23 3e 86 2f 24 3e b0 a8 e3 3d
       -0.16145405 0.15972011 0.16033754 0.11116159
000020 a4 bf ea 3d 3c 9c 55 be
       0.11462334 -0.2086038

net.11.weight f4 [5, 10]
000000 48 5f 82 3d b3 11 ac 3d 52 b8 a5 3e b2 c5 66 bd
       0.0636583 0.08401813 0.32367188 -0.05634088
000010 cf 05 7e be 64 69 31 be ff 30 3a 3e f8 f9 c6 bd
       -0.24806903 -0.1732536 0.18182753 -0.097156465
000020 91 16 a8 3d f9 bf 94 be ba 90 6a 3e 85 ec 6c 3e
       0.08207429 -0.29052714 0.22906771 0.231371
000030 49 45 4f bd 5d 07 97 3e 9d e1 2a be d4 f5 67 3e
       -0.050603185 0.29497805 -0.16687627 0.2265237
000040 d3 e1 c2 3d 39 03 3b bd 90 85 17 3e 03 e6 8b bd
       0.09515729 -0.04565737 0.14797044 -0.06830981
000050 e9 b0 4c 3e e2 75 81 be 09 c0 ad bd 86 17 97 bd
       0.19989361 -0.2528525 -0.084838934 -0.073775336
000060 9c 1e a6 be e0 0b d7 bd 68 87 13 be 42 6e 4e be
       -0.32445228 -0.10500312 -0.14407122 -0.20159248
000070 34 51 0a bc 4e c5 ba be bf 4e 80 3e e2 36 e6 bd
       -0.008442212 -0.36478657 0.25060079 -0.11240937
000080 75 79 6f 3d 58 55 2b 3e c2 ca aa be 0a d2 c4 bd
       0.05846544 0.16731775 -0.33357817 -0.09610374
000090 fe 77 25 be a4 d0 8a be 4f 24 86 3e 68 37 38 3e
       -0.16159055 -0.27112305 0.26199576 0.17989886
0000a0 c0 14 39 b9 34 a0 2e be f4 1a 6f 3d 1b f2 29 bc
       -0.00017650705 -0.170533 0.058375314 -0.010372664
0000b0 5a 92 0f bd f9 f6 b3 bd e6 5b a1 3e 75 8f 1f be
       -0.03505168 -0.08787341 0.31515425 -0.15582068
0000c0 b4 96 8f 3e 6b e2 17 be
       0.28044665 -0.14832465

net.11.bias f4 [5]
000000 44 06 0b 3e 06 05 09 3e 00 b7 24 3d 47 88 24 3e
       0.13576609 0.13380823 0.040213585 0.1606761
000010 9e 5f 3b 3b
       0.0028590928
